6289/Midterm6289/fashion3_net.pth (torch, 874199 bytes, 6 tensors)

layer.0.weight f4 [256, 784]
000000 49 d5 3e 3c c9 07 e0 3c 5b 75 2b 3c 98 ff 77 ba
       0.011647531 0.027347462 0.010464991 -0.00094603887
000010 75 96 ec 3c ff 33 18 3d f3 87 18 3d 7d a5 5a bb
       0.028880337 0.037158962 0.037239026 -0.00333628
000020 b5 a5 2f 3c da 08 0c bd c3 fa b8 3b b7 31 bd bc
       0.01072066 -0.03418813 0.0056451275 -0.023094995
000030 75 b1 4a 3d 08 e9 18 bd ae ae eb ba 85 9c 65 bc
       0.049485642 -0.03733161 -0.0017981136 -0.014014368
000040 ee bf 29 3d 26 03 85 3c 5b ea d8 3a bf ab 36 3c
       0.041442804 0.016236853 0.0016549336 0.011149346
000050 84 46 72 3c ad 63 d3 3b af a5 02 3c 57 18 06 bd
       0.01478732 0.0064510913 0.007974072 -0.032738056
000060 78 27 8f 3a 87 ad fd ba 6c e8 eb 3c 78 04 28 bc
       0.0010921797 -0.0019354083 0.02879735 -0.010254972
000070 f6 57 f0 bc 4c 43 01 3d 06 25 e7 3c 48 cf dd bb
       -0.029338818 0.03155832 0.028215896 -0.0067690946
000080 aa c1 43 3c fb 80 af 3c 3b 9c df 3a a5 4b 3e bd
       0.011948029 0.021423807 0.001706011 -0.04645886
000090 ef f3 5b 3c 0b ef 9e bb 96 15 3d bc 74 cb 8e 3c
       0.0134248575 -0.0048502735 -0.011540791 0.017430998
0000a0 73 42 53 bb 54 f3 e6 3b b3 39 b2 3b e8 2c cf 3b
       -0.0032235652 0.00704805 0.005439007 0.006322492
0000b0 2a 4f 26 3c ec 03 10 bc 12 4c a6 3c fe 48 aa 3c
       0.01015071 -0.008789998 0.020299945 0.020786759
0000c0 66 e1 0f bd d6 d0 e2 bc ac c6 f9 3c 0a 5d 0f bc
       -0.035127066 -0.027687471 0.030490242 -0.00875021
0000d0 25 9b c6 bc 40 96 13 bd ad 95 83 bc cb ad 10 3d
       -0.0242439 -0.03603196 -0.016062582 0.035321992
0000e0 91 e0 73 bb 19 38 14 3d 51 e3 37 3c 61 31 bc 3c
       -0.003721271 0.03618631 0.01122363 0.022972764
0000f0 c2 ed a3 3c 62 78 8b 3c 13 55 15 bd f7 72 21 3b
       0.020010833 0.017025176 -0.036458086 0.0024635175
000100 e0 7f ad 3c f6 09 88 3c 03 1f 82 bc 77 25 a6 bc
       0.02117914 0.016606312 -0.015883928 -0.020281537
000110 a3 f6 f8 bc 88 3d ec 3b c5 89 ea b9 e8 b6 00 bd
       -0.030391043 0.0072094835 -0.00044734604 -0.031424433
000120 90 e8 ee bc e0 04 e8 bc a9 6e ed bc a0 58 ed bc
       -0.029163629 -0.028322637 -0.028983431 -0.028972924
000130 56 f7 86 bc a6 75 d4 bc 17 61 38 bd fa 0e 7e 3b
       -0.01647536 -0.025935005 -0.045014467 0.003876625
000140 27 55 e2 bb 58 5c 06 bd fd a7 82 bc c4 25 18 3d
       -0.0069071236 -0.03280291 -0.015949244 0.03714539
000150 fc f5 0d 3d f1 52 aa bc e3 c1 05 bd 21 18 cb bc
       0.034658417 -0.020791503 -0.032655608 -0.024791779
000160 c3 17 cd ba f3 19 94 bc cb 32 ae bb e7 19 84 bc
       -0.001564734 -0.01807878 -0.0053161136 -0.016125632
000170 21 a1 bb bb 08 ae b8 3c b6 5c cc ba 91 c9 a4 3c
       -0.005725995 0.022543922 -0.0015591595 0.020115646
000180 36 83 c4 bc 66 33 ae bc de 4c 68 3c 28 6f 23 3d
       -0.023988348 -0.021264743 0.014178483 0.03990093
000190 4d 7c d7 3c a2 7f 45 3c fe b2 2b bd a0 82 15 bd
       0.026304388 0.012054356 -0.041918747 -0.036501527
0001a0 7f 5f 21 3c 11 c9 44 bd 0f 81 58 bd 2a 22 16 3a
       0.009849428 -0.048043314 -0.052857455 0.0005727137
0001b0 2b 14 93 3c 55 7d d1 bc 0f 74 37 bc 78 69 13 bc
       0.017953953 -0.025572458 -0.011197104 -0.008997314
0001c0 44 47 2b ba 5f 24 c1 3c cb da f1 3c 89 83 e2 bc
       -0.0006533752 0.023576913 0.029523274 -0.027650611
0001d0 47 2e a2 bb 80 a2 c4 bb bd 56 1d bd bb bc e2 bc
       -0.0049493643 -0.006000817 -0.0384128 -0.027677884
0001e0 ee 7a 6f bc a8 5e 7f bc b7 b5 d0 3c f7 2e ae 3c
       -0.014616711 -0.015586533 0.025477273 0.021262629
0001f0 72 01 ce 3c fa 7d 7a bb 8e 73 24 3d cd c4 75 3c
       0.025147174 -0.003822206 0.040149264 0.015000534
000200 44 1e 0f 3d f0 4b 3d 3d 1c 19 c1 3c bc 0e f3 bc
       0.034940973 0.046214998 0.023571543 -0.029670112
000210 e6 09 95 3c 35 83 34 ba ef 68 10 bc 6b 4d bc bb
       0.018193197 -0.00068860064 -0.008814081 -0.0057465336
000220 e5 cc 19 bd 55 1c e2 bc 3c 5e 8b bc a6 38 97 3b
       -0.03754892 -0.0276014 -0.017012708 0.0046149073
000230 c3 2b f4 bc 80 9e 02 bd 60 e9 6c bb 48 4a b5 3b
       -0.029806023 -0.03188944 -0.0036149845 0.0055325367
000240 dc 60 aa 3c ed a8 9f bb c5 a3 d4 3b 09 9b f7 3b
       0.02079814 -0.0048724324 0.0064892494 0.0075563234
000250 49 81 04 3d 8a 88 a3 3c 26 ed 19 3d 43 9f f0 3b
       0.03234986 0.019962568 0.037579678 0.007343204
000260 76 82 00 bc 1f b0 b6 bc 55 51 f4 3c 6d f3 56 3d
       -0.007843604 -0.022300778 0.029823938 0.052478243
000270 29 b1 f7 3c 19 d8 32 bc 65 0b ac bb fc 47 d8 3c
       0.030235844 -0.0109157795 -0.005250382 0.026401512
000280 56 1f d4 3c eb c4 f9 bb 3b 0d a6 bc 93 fb d6 bc
       0.025893848 -0.0076223514 -0.02026998 -0.026243007
000290 4d a9 b2 3b 15 8c 72 3c 81 eb 8b bb d6 61 c8 bc
       0.005452311 0.014803906 -0.0042700176 -0.024460714
0002a0 23 eb 3a 3c 47 80 d2 ba 3d ba ad 3c aa ae ca bc
       0.0114086 -0.0016059958 0.02120697 -0.02474149
0002b0 e6 a9 6f bc 64 a7 22 bd db 67 06 3c 50 ab 17 bd
       -0.014627909 -0.039710417 0.008203472 -0.03702861
0002c0 22 02 a0 3c c8 9e fa 3c 21 29 36 3c b4 3b 98 bc
       0.019532267 0.03059329 0.011118204 -0.018583156
0002d0 b0 65 b0 ba 05 01 e0 3c 70 99 07 3d ab a9 3f 3c
       -0.001345804 0.027344236 0.033105314 0.011698167
0002e0 89 d3 fa 3c 84 39 17 bc 5e 0b f8 3c 7e f0 0d bb
       0.030618446 -0.009230021 0.030278858 -0.0021658237
0002f0 12 96 d2 bc d0 45 a6 bc 79 64 d5 bc f7 0d 1b 3c
       -0.025706325 -0.020296961 -0.026048886 0.009463779
000300 6a a2 06 bd 22 ad 94 bc 0c d1 06 bd 2c 6a 26 bc
       -0.032869734 -0.018148962 -0.032914206 -0.010157149
000310 a8 d6 96 bb a1 ae 04 3d 8e 58 95 3c 96 1f 90 39
       -0.0046032257 0.0323931 0.018230703 0.00027489354
000320 2f 5a df 3c bd 5b 1e 3c 4a 5a 01 3d 46 01 a4 3b
       0.027264683 0.009665427 0.031580247 0.0050050346
000330 4b 5b d4 bc 53 0b 93 3c 8e 8d a7 3c c6 79 a4 3c
       -0.025922438 0.017949736 0.02045324 0.020077597
000340 07 c9 3f 3d 7a 0f b7 ba 3b 77 2d bc 8c 7e da 3c
       0.046822574 -0.0013966404 -0.010587509 0.02667167
000350 05 2a 57 bc fc b3 d4 bc 7a 00 80 3b fb b2 ad ba
       -0.013132577 -0.02596473 0.003906307 -0.0013252193
000360 17 84 dd bc 9a ad f1 ba 72 8d 05 bd 4e f1 f1 3b
       -0.027040524 -0.0018438578 -0.032605596 0.007383502
000370 ba b2 5c bc 00 eb eb 3c ca 44 8c 3b 95 51 b0 3c
       -0.013470346 0.02879858 0.004280661 0.021523276
000380 f5 b0 d6 3c db 05 d9 bc e6 61 20 3d b0 4f 85 bc
       0.026207427 -0.02649205 0.039155863 -0.01627335
000390 b5 9c 25 bd f6 ae ee bc d9 d8 09 3c b0 35 cc 3c
       -0.04043265 -0.029136162 0.008413517 0.024927944
0003a0 87 54 e4 ba df 09 0b 3c 48 a3 b2 3c d8 47 7b bc
       -0.0017420211 0.00848624 0.021806374 -0.015336953
0003b0 96 cb 38 ba 50 e3 76 3c bc 0b fc 3c 66 df 16 bd
       -0.00070493796 0.015068844 0.030767314 -0.036834143
0003c0 2e a0 b6 bc 85 90 c6 bc c6 de 8b bb bc b1 5d bc
       -0.022293177 -0.024238834 -0.0042685 -0.013531145
0003d0 2c d8 d9 bc 52 aa 22 3c 6e 52 47 ba 24 e8 cb ba
       -0.026592337 0.009928303 -0.00076035305 -0.0015556854
0003e0 83 1d 38 3c fe 83 0c bd c7 51 a0 bc 13 37 31 bc
       0.011237505 -0.034305565 -0.019570244 -0.010816353
0003f0 ce 50 7b bb cf 6f 18 3c 50 c6 9e bc f1 30 7b 3c
       -0.0038347724 0.009304001 -0.019381672 0.015331493

layer.0.bias f4 [256]
000000 e4 ec c1 3c f4 70 12 bc 8e 76 ec 3b 51 40 be bc
       0.023672529 -0.008938063 0.0072162813 -0.023224028
000010 fb d4 67 bc ff 23 d6 39 86 31 08 bd 27 94 db 3c
       -0.0141499 0.0004084408 -0.033250354 0.026804043
000020 7f 38 bb 3b 8d ef 0d bc b9 9a 12 bd 2e 98 cc 3c
       0.005713522 -0.00866307 -0.035792086 0.024974909
000030 f2 e6 2c bc 3b 77 96 bc 92 e4 74 3c c2 00 c8 3a
       -0.0105531085 -0.0183674 0.0149470735 0.0015259015
000040 d8 ad 95 3a e5 6f e4 3c a2 ee d1 bc 5c 23 ac ba
       0.0011419607 0.027885387 -0.025626484 -0.0013133097
000050 64 f7 a5 bb e3 54 7f 3c ae 21 c5 bc 64 76 66 bc
       -0.0050648917 0.015584203 -0.024063911 -0.014066312
000060 9f e8 3a 3c d9 09 00 3d 64 b5 b8 3c 07 db ba 3c
       0.011408 0.03125939 0.022547431 0.022809519
000070 7e a7 6f bb 45 00 79 bc fe 7f ab 3c a3 d8 d6 bc
       -0.003656834 -0.015197818 0.020935055 -0.026226347
000080 8b 3b 57 38 ed 5f 4f 3b 1d 28 ae bc cb af 93 3c
       5.131545e-05 0.003164287 -0.021259362 0.01802816
000090 44 0f a3 3b 85 fd cb bc c8 de 88 bc c2 3c e8 bc
       0.004976185 -0.024901161 -0.016707793 -0.028349284
0000a0 e6 57 b5 bc e9 65 37 bd 83 f8 11 3d 80 19 50 3c
       -0.02213664 -0.044774923 0.03563739 0.012701392
0000b0 77 f2 6a 3c b1 96 44 bc 92 f5 dc bc 8e 2e b4 3c
       0.014340035 -0.011998818 -0.026972566 0.021994855
0000c0 12 b8 ec 3c b8 79 6a bc 00 fc b9 bc 0e e6 0a 3d
       0.028896365 -0.014311247 -0.02270317 0.033910803
0000d0 ba b4 5c bc 73 40 a5 3c cf fc d1 bc 0e a1 d9 bc
       -0.013470823 0.020172333 -0.025633244 -0.026566055
0000e0 ba 0a 8d bc 6a 29 b8 3b ef a6 71 3a 76 e0 33 bc
       -0.017217029 0.0056201713 0.00092182955 -0.010978809
0000f0 3c 9e 00 bd c4 a7 44 bc fb b9 be bc d3 ae 5c bc
       -0.031400904 -0.012002889 -0.023282042 -0.013469416
000100 08 7a fc bc 31 e5 43 3c 09 2d 71 bc fc 6d 00 3c
       -0.030819908 0.011956499 -0.01472021 0.007838722
000110 75 09 b3 3c 35 d7 1b bd 0f 23 14 bc 4a c0 9a 3c
       0.021855095 -0.038047034 -0.009041562 0.018890519
000120 53 1c bf 3c 37 59 e3 bc 05 81 3a 3c cf 73 d0 bb
       0.023328936 -0.027752502 0.0113833 -0.0063614617
000130 06 fc 41 bd a7 20 16 bb 77 51 ee 3b 28 96 a9 3b
       -0.04735949 -0.0022907646 0.007272895 0.0051753707
000140 8b 93 84 3c 28 f0 f2 bc c2 5b 49 3c fd 1f 85 bc
       0.016183635 -0.029655531 0.012289943 -0.016250605
000150 d0 34 4a 3c 27 af be bc 52 e6 68 bc 08 1a cf bc
       0.012341693 -0.023276879 -0.014215069 -0.025280967
000160 e2 e7 cb bb 4b 4d 1e bd 04 ad d1 3a a4 18 83 bc
       -0.006222711 -0.03864793 0.0015996997 -0.01600296
000170 bd f1 bf 3b b0 f0 a0 3c df d7 08 bc 4f b1 78 bc
       0.005857675 0.019646019 -0.008352249 -0.015178992
000180 ed 41 a0 3c c9 9c 64 3c d7 f6 0e bd 16 34 32 ba
       0.019562686 0.013953396 -0.034903374 -0.00067979225
000190 b9 a3 86 bc 66 9a c7 bc 5f cc 81 3c 80 db 0b bd
       -0.01643549 -0.024365615 0.015844522 -0.03414488
0001a0 bc 5e b5 3b 84 61 34 3a 02 84 77 bc 2e 00 97 bc
       0.005534975 0.0006880986 -0.015107157 -0.018432703
0001b0 05 ce ac bb fa ce 83 3c f6 38 c4 3b 8d 11 b8 3c
       -0.005273583 0.016089905 0.0059882356 0.022469306
0001c0 0d 19 00 3d bf 15 63 3c af 72 2c bd 83 09 19 3d
       0.03127389 0.013860165 -0.04210156 0.037362587
0001d0 13 32 f4 3c 51 85 fa bb 81 4d 9a bc fc b6 b1 3c
       0.029809033 -0.007645287 -0.018835785 0.021693699
0001e0 06 fa e4 3c ac 44 f5 bc 0f 42 44 bc d6 a4 fa ba
       0.027951252 -0.029939972 -0.01197864 -0.0019122611
0001f0 81 fa fc 3c b8 52 b6 3c 90 ed 0d 3d 3a aa 1d 3d
       0.030881168 0.02225624 0.034650385 0.03849242
000200 b9 ba f3 bc 09 b4 6c bc e0 96 00 3c 42 4a 04 3b
       -0.029752122 -0.014447221 0.007848471 0.0020185863
000210 f9 01 be bc fb 93 b4 3c 67 2b d6 3b 96 0c e2 bc
       -0.0231943 0.022043219 0.0065359357 -0.027593892
000220 02 bf 2b 3c ee 53 8c 3c 26 08 9a bc 5f c7 7e bc
       0.0104825515 0.017129865 -0.018802714 -0.015550463
000230 59 d2 2d 3d 62 f2 b7 bc 2b f6 1b bd e0 57 69 3c
       0.04243693 -0.022454444 -0.03807656 0.014242142
000240 72 7e fe bc ec da 01 3d d1 04 bf bc 6a 6b b4 3c
       -0.031066153 0.03170292 -0.023317726 0.022023875
000250 12 27 9f bb 43 a9 90 3b 3a 1a e4 bc cf 46 bb 3c
       -0.0048569525 0.004414709 -0.027844537 0.022860913
000260 7f df b5 3c d1 cc 35 3b dd f5 02 bc fc 6a 84 bc
       0.022201298 0.0027740488 -0.007993189 -0.016164295
000270 e7 c8 cc bc da ce b7 3c a7 45 90 bc 5a 7f 1b b9
       -0.024998141 0.022437502 -0.017611338 -0.00014829394
000280 da cb 33 bc 84 21 fd 3c b1 33 d3 bc 3d e5 17 bc
       -0.010973895 0.03089977 -0.025781484 -0.009270963
000290 d7 72 c4 3c f2 91 de 3c 2d 22 0a bd a8 53 b8 bb
       0.023980541 0.027169202 -0.033724 -0.005625207
0002a0 a1 39 6c bc 75 26 c3 3c 57 87 ff 3c 35 61 cf bc
       -0.014418037 0.023822049 0.031192465 -0.025314907
0002b0 17 d6 86 3c d2 a5 f5 3c a7 d9 c4 3c 9f f2 cd 3b
       0.016459508 0.029986296 0.024029566 0.006285026
0002c0 15 47 34 bc 5d ce c0 3c 28 95 05 bc 7e 18 ef bb
       -0.011003275 0.023535902 -0.008153237 -0.007296621
0002d0 aa 22 13 3d 2f 6a f8 bc 39 06 0b 3c 07 fd c8 bb
       0.03592173 -0.03032407 0.00848537 -0.006133679
0002e0 9a 29 33 3d 1a 6b 81 bc cd 3a da 3c d3 d5 2d 3c
       0.043740846 -0.01579814 0.026639367 0.010610062
0002f0 03 c1 c7 bc 02 95 40 bc 19 5b 3f 3c 8d f4 47 bc
       -0.024384027 -0.011754276 0.011679434 -0.012204302
000300 07 c0 66 bc a8 f3 d1 bc 15 62 1f 3d 6e f5 0c bd
       -0.014083869 -0.02562888 0.038911898 -0.034413747
000310 36 dd ea 3c 9f a5 08 3c b1 6c e5 bc 41 5a cd 3c
       0.028669935 0.008340268 -0.02800593 0.02506745
000320 fe 5a f0 3c f0 6d b0 3b 28 76 30 bd 32 f5 e0 3c
       0.029340263 0.0053841993 -0.043081433 0.027460668
000330 e0 c5 88 3b dd d4 6a 3c 6d 2e 07 bc 21 bf ba 3c
       0.004173979 0.014332977 -0.008250815 0.022796215
000340 d0 27 aa bc a4 0e be bc 9e b4 7f 3b ec bf 4e bb
       -0.020770937 -0.02320034 0.0039017568 -0.00315475
000350 b7 7e b6 3c 82 2a fb bc c8 b2 09 3d 56 ab 1d b9
       0.02227722 -0.030659918 0.033617765 -0.00015036514
000360 9f c3 8e bc 48 e7 e0 bc 9d 69 b3 bb ed 24 0f 3c
       -0.017427264 -0.027454033 -0.0054752366 0.008736831
000370 61 3c 91 3c 40 b4 ae bc 2a 38 1a bb 20 39 5b bc
       0.017728986 -0.021326184 -0.0023532012 -0.013380319
000380 df 1f 12 bd 52 93 67 bc 65 7b 26 3c 82 50 aa bc
       -0.035674926 -0.014134245 0.0101612555 -0.020790342
000390 74 79 cb bb 1c db 1a 3c d2 a9 d2 bc 9e fb 9b 3b
       -0.0062095467 0.009451654 -0.025715742 0.0047602197
0003a0 b7 bb 9d bc c5 bb 4e 3c 0d 9b eb bc a1 26 44 3c
       -0.019254548 0.01261801 -0.028760457 0.0119721005
0003b0 e2 cc f8 3b d0 4f cf b8 f1 79 d7 bc 23 ac 57 bc
       0.0075927833 -9.8853954e-05 -0.026303263 -0.013163599
0003c0 95 5d e5 bb fd 5c 86 bb be 82 eb 3c 9b 5d dc bb
       -0.0069996812 -0.0041004405 0.028748866 -0.006725026
0003d0 cf d0 f5 bc 83 aa 18 3c aa 46 62 3c 99 b6 dc 3c
       -0.030006794 0.009317997 0.013810793 0.026942538
0003e0 44 cc 35 3b a1 33 61 3b 17 b2 01 3d 6b 73 31 bc
       0.002774016 0.0034363049 0.03166398 -0.01083074
0003f0 0c 54 ac bc 62 2f ba bb 47 a5 83 3c 52 6c 31 3c
       -0.02103617 -0.005681918 0.016070021 0.010829048

layer.2.weight f4 [64, 256]
000000 ba 9e 72 bd cd 81 27 bd 37 37 34 3d 0d 20 02 bd
       -0.059233405 -0.040895272 0.04399797 -0.031768847
000010 70 dd 7d bd 68 c8 90 3d 4c b7 04 3d 70 4e 45 3d
       -0.061978757 0.070694745 0.032401368 0.048170507
000020 cb 21 4e bd 45 00 b1 3c b9 05 36 3d c9 b4 48 bd
       -0.050325196 0.021606574 0.04443905 -0.049000535
000030 46 82 37 bb 33 4e f4 bd fc e0 92 bd 97 b1 ea 3c
       -0.0028001233 -0.11928978 -0.071718186 0.028649135
000040 61 e0 54 3c 20 a9 c8 3c 3b c3 9e 3c b0 a2 a7 3d
       0.012992949 0.024494708 0.019380203 0.08185327
000050 61 b4 86 bd a5 79 5d bd 41 54 8f 3a 0b c6 41 bc
       -0.06577373 -0.054071087 0.0010935144 -0.011827002
000060 9a 64 26 3d 89 d8 7c bc 46 24 be bd 41 f6 08 3d
       0.040623285 -0.015432485 -0.09284262 0.03343797
000070 4f 4b a9 3d 1c 3c 2c 3d 22 aa 95 bc 35 6c a0 bc
       0.08266317 0.042049512 -0.018269602 -0.019582847
000080 92 9b a9 3d 31 14 04 bd 08 50 00 3d d8 e0 c3 bd
       0.08281626 -0.03224582 0.031326324 -0.0956437
000090 f0 40 02 3d 3e 94 71 bd 62 6d 6e 3c 47 46 12 bd
       0.03180021 -0.058979265 0.014552446 -0.035711553
0000a0 c2 9c 97 bc 80 85 c1 bd 05 81 24 3d e1 e7 65 bd
       -0.018507365 -0.09449291 0.040162105 -0.05612934
0000b0 07 e0 c5 bc d2 76 a3 3d 7d 38 97 bd c5 1f c6 3c
       -0.024154676 0.079816476 -0.07383821 0.02418507
0000c0 e2 4e 8e 3d 00 a1 1b 3c 6f e5 ab bd e4 35 5a bd
       0.069486395 0.009498835 -0.0839337 -0.05327405
0000d0 a2 a6 a2 3d 76 47 05 3d be 08 54 3d 29 10 96 bd
       0.07941939 0.032538854 0.05176615 -0.07327301
0000e0 58 d1 60 bd a6 3d 7a bd d4 e6 1b 3d 31 04 8f bc
       -0.054887146 -0.06109395 0.03806193 -0.017458053
0000f0 b6 59 54 bc 6c ee 16 3a 46 5e e7 3c 58 f6 35 bd
       -0.012960842 0.00057575735 0.028243195 -0.044424385
000100 d0 ba cd 3c 27 05 81 bd 70 e7 a5 bd be fa 51 3d
       0.025113493 -0.06299811 -0.08100784 0.051264517
000110 e8 84 72 3c 6f 30 8c bb dd 77 9a bd a6 9d c0 bd
       0.014802195 -0.0042782347 -0.07542393 -0.09405069
000120 a5 62 06 3e e5 5a ef 3c a5 24 18 3c a9 da b1 bd
       0.13123567 0.029218147 0.0092860805 -0.08684284
000130 10 6e 19 3c 95 91 c3 3c 62 17 c7 3c d1 b1 8b bc
       0.00936462 0.02387313 0.024303142 -0.017052563
000140 70 c2 0d b9 32 92 2c 3b ad 45 98 3d e9 b3 86 3c
       -0.00013519241 0.0026332256 0.074351646 0.01644321
000150 18 10 43 3d 1b 8a 9f bc 59 66 55 3d a3 c5 97 3b
       0.04762277 -0.019475034 0.05209956 0.0046317144
000160 16 67 5b ba 85 3d a3 3c 36 74 86 bc 64 47 73 3d
       -0.0008369548 0.019926796 -0.016412836 0.059394255
000170 f8 ae 39 3d a3 23 97 3c a4 fd 47 bc 92 b8 af bc
       0.04533288 0.01844961 -0.012206469 -0.021450315
000180 2b 8a 17 3d 61 54 b9 3d fd f8 1d bc bb 27 90 3d
       0.036997 0.09049297 -0.009641883 0.07038828
000190 fa f3 ba 3c ed b6 2b 3c e2 95 54 bd 63 2a 33 3d
       0.022821415 0.010480625 -0.051900752 0.043741595
0001a0 31 23 1b 3d 34 38 96 bb 5b d8 63 bd 7e 6d 87 b9
       0.037875358 -0.0045843367 -0.055626255 -0.00025830785
0001b0 a2 6a cf 3d 49 9a eb bc 05 b7 53 3c d9 35 50 3d
       0.101277605 -0.028760092 0.012922053 0.050832603
0001c0 91 91 05 bd 7e 24 12 3d e2 41 17 3d 62 be 85 3d
       -0.032609526 0.035679333 0.036928065 0.06530453
0001d0 39 3a 21 bd 2f 03 0f bd d7 58 0f bd dd d9 be bc
       -0.039362166 -0.034915145 -0.034996834 -0.023297245
0001e0 2c e7 61 3d e3 a0 a1 3d c9 2b 9d bd dc 36 06 bd
       0.055152103 0.07892015 -0.07674367 -0.03276716
0001f0 73 b6 51 bd a1 28 b9 bd 86 0e a4 bc 1d 5a a8 3c
       -0.051199388 -0.090409525 -0.020026457 0.020550782
000200 47 9d 69 bc f3 70 b4 bd d2 fa ec bc d4 5a 4a 3c
       -0.014258689 -0.08810606 -0.028928194 0.012350757
000210 b2 4b 4d 3d 39 80 ba 3b 8e c8 a9 3d 6b ed 5f bd
       0.050121017 0.005691555 0.08290206 -0.05466978
000220 9f a4 28 3a 47 36 a8 3d 13 99 8b bc bb 0c 14 3d
       0.0006433222 0.082134776 -0.017040765 0.036144953
000230 0e 5c 51 ba 9b 72 4a 3d 6a 88 5b bd e7 18 c1 b9
       -0.00079864345 0.049425703 -0.05359689 -0.00036830382
000240 39 47 ba bd f9 1c ae ba e4 19 83 bd ca 5e a8 bc
       -0.09095616 -0.0013283781 -0.064014226 -0.020553011
000250 fd db b7 3d 49 3e 77 3d 0c cb 6c bd bc 1b 88 bd
       0.08977506 0.060362134 -0.057810828 -0.06645915
000260 7b b6 4c 3d 3d 59 34 bd fa 7a 29 3d e9 f0 0f 3d
       0.049978714 -0.044030417 0.041377045 0.03514186
000270 0a 5e b4 bd 55 5a 2d 3d d2 d9 74 bc ff 9e 0f 3d
       -0.08806999 0.042322475 -0.014944511 0.03506374
000280 57 bc 6b 3d c1 fb 46 3d bd 82 1c bc ea 85 05 3d
       0.05755266 0.048579935 -0.009552655 0.032598414
000290 01 4c d1 3c ce 28 4c 3d f3 ad 80 bd 74 b0 9d 3d
       0.025548937 0.049843602 -0.06283178 0.076996714
0002a0 6d a5 d3 3c 9e de ff bc 1d b3 d3 bc 66 18 59 3c
       0.025835717 -0.031234082 -0.025842244 0.013250446
0002b0 09 fd 57 3d e1 57 8f bd 42 1c 18 bd 7f a7 41 bd
       0.052731548 -0.069991834 -0.037136324 -0.047278877
0002c0 f8 f7 9a bd f9 00 db bd f6 14 e0 3c 96 8e 9f 3d
       -0.075668275 -0.10693545 0.027353745 0.07790868
0002d0 25 2f b3 3c f9 e9 63 bd 5c ca 36 bd bd 7b 54 bd
       0.021873066 -0.055643056 -0.04462658 -0.05187582
0002e0 9d 4c 1d bd 0f 3a d9 bc 4c 99 8d 3d dd 6a 89 bc
       -0.038403142 -0.026516942 0.06914005 -0.01677459
0002f0 c0 18 3f 3d 38 3a 61 bd 01 21 9f bd 4e 08 aa 3d
       0.046654463 -0.054987162 -0.07769967 0.08302365
000300 04 68 c1 bc 3b 0d 48 bd c4 d7 54 bc 58 80 3c 3d
       -0.023609169 -0.048840743 -0.012990896 0.046020836
000310 22 fc 76 3d 3b 83 0b 3c 89 61 d5 3c ea 8f 1c 3a
       0.060299046 0.0085151745 0.026047485 0.00059723726
000320 5f cb e6 3c da d1 5d 3c 95 98 dd b9 05 7c 5d 3d
       0.028173147 0.013538802 -0.00042266087 0.054073352
000330 17 74 7d 3d 33 7e 3c 3d b9 63 25 3d 5c f5 e5 3c
       0.06187829 0.04601879 0.040378306 0.028071098
000340 6d 43 a5 bb 72 c6 6c bd 20 3e e1 3b c4 a2 c0 bd
       -0.005043438 -0.05780644 0.006873861 -0.09406045
000350 47 20 b0 3d 09 a0 38 bc c0 64 4b 3c 40 c3 96 3d
       0.085999064 -0.011268624 0.012414157 0.0736146
000360 8d aa 98 3d 68 a3 fd 3b 3a c1 e8 3c 01 d5 ff bc
       0.07454405 0.007740427 0.02841245 -0.031229498
000370 7c 2e 88 3d 35 24 a9 bd cf 05 85 3c 8e c9 3e bd
       0.06649491 -0.08258859 0.016238121 -0.046578936
000380 6b 0b b4 bc 0a 34 95 3b 2a 53 00 3d b4 ca 91 3d
       -0.0219781 0.0045533227 0.03132931 0.07118741
000390 b1 c2 b0 3c 65 33 82 3c 66 ca 93 3d f4 dc 19 bd
       0.021577211 0.015893647 0.07216339 -0.037564233
0003a0 b1 6d 0d bd 57 1c 25 bd e6 be 8e 3c 29 e8 1f 3d
       -0.034528438 -0.04031023 0.017425012 0.039039765
0003b0 75 fd 8f 3d e1 b0 7c 3d 0c 82 35 3c 40 8c b5 bc
       0.07030765 0.061692122 0.011078369 -0.022161603
0003c0 83 48 b2 3b 55 a1 1f 3d d2 21 5b bd ad 2c 39 bd
       0.005440773 0.038972218 -0.05349905 -0.04520862
0003d0 4b 68 55 3d 7c 8e 9f 3d 6b 6c 9f 3d a4 a6 46 3d
       0.052101415 0.077908486 0.07784351 0.048498765
0003e0 b0 14 1c bd 16 d9 3b bd 64 52 b1 3c b3 6b f6 bc
       -0.038105667 -0.045861326 0.021645732 -0.030080652
0003f0 40 8f ab 3c b3 a1 89 bd e9 58 93 3c 44 9a 5b ba
       0.02094233 -0.06720295 0.017986732 -0.00083771744

layer.2.bias f4 [64]
000000 bc ab af 3d 10 a2 7b 3d 13 64 cb bc 87 5f 6a 3c
       0.085776776 0.06143385 -0.024827993 0.014305002
000010 3d 60 61 3d 0e d3 34 bd 08 a5 cb 3c a4 72 3b bd
       0.05502342 -0.04414659 0.024858966 -0.045763627
000020 17 54 55 bd 9c c2 fa bb bf 6a 1d bd 42 32 56 bd
       -0.052082147 -0.007652594 -0.03843188 -0.052294023
000030 61 42 8f bc c9 5a ac 3c 52 54 06 bd b1 0a 68 bb
       -0.017487707 0.021039383 -0.032795258 -0.0035406763
000040 79 12 32 3c 5c dd b9 3c b7 9c b7 3b ec 5a 16 3d
       0.010868662 0.02268856 0.0056033987 0.036707804
000050 7d 22 8c 3d 79 6f af 3d 5d 45 6c 3d 22 c6 0f 3d
       0.068425156 0.085661836 0.057683337 0.035101064
000060 aa 79 16 3d 17 f4 10 bb ec b8 ee bc 48 7a 01 3d
       0.03673712 -0.0022118145 -0.029140912 0.031610757
000070 9d e4 62 bd 2f b9 3d bd 4f 5e 03 bd da cc da bc
       -0.055393804 -0.046319183 -0.03207236 -0.026709009
000080 92 ba 05 3d 31 49 5d bd 6d 40 4b 3d 8a 88 8b bc
       0.03264863 -0.05402488 0.049621988 -0.01703288
000090 2f cc 29 3d 2c 04 72 3d e9 e5 3e bd f2 35 e6 bc
       0.04145449 0.05908601 -0.04660598 -0.028101895
0000a0 4d 9c 4a 3c 7b 17 6f 3d 58 12 07 bd 08 7b 60 bd
       0.012366367 0.058372002 -0.03297648 -0.05480483
0000b0 d7 e6 d4 bb eb a3 06 bc c7 62 56 bd a2 95 82 bd
       -0.006497245 -0.008217792 -0.052340295 -0.063761964
0000c0 06 78 7c bd 6c 65 d0 bb 1c eb a0 3c 6b 69 93 3d
       -0.0616379 -0.0063597467 0.019643359 0.07197841
0000d0 f9 b3 0d 3c 15 0d 08 3d bc 34 b8 3c 17 ea 7b 3d
       0.008648866 0.0332156 0.022486083 0.061502542
0000e0 4f a2 2a bc 5c 9e b7 bc 78 d4 ef 3c 4e e2 66 3d
       -0.010414674 -0.022414379 0.029276118 0.056368165
0000f0 c1 11 16 3d 44 d8 37 3d 92 8b 5b bd 77 18 9b 3d
       0.036638025 0.04488398 -0.0535999 0.07573026

layer.4.weight f4 [10, 64]
000000 76 5e b0 3d 75 c1 83 3d a6 7b f7 3d f4 66 7b bc
       0.08611767 0.064333834 0.12084131 -0.01534437
000010 cd 11 b4 bd e1 8c fb 3d f3 d0 da 3d b5 a3 41 bd
       -0.08792458 0.1228273 0.10684385 -0.047275264
000020 32 6f 0e bd 41 ea 0f 3d 44 db a0 bd 61 94 20 bd
       -0.034774013 0.03513551 -0.078543216 -0.039204005
000030 d7 84 d3 bd cd 16 dc bb f8 d7 c9 bd 5d df 25 3d
       -0.103280716 -0.0067165853 -0.09855646 0.04049622
000040 86 81 53 3d 0c 44 9f bd 04 c2 e0 3d 64 b3 fc bd
       0.051637195 -0.07776651 0.109745055 -0.123389035
000050 69 af 59 bd a5 a9 65 bd bf 58 a0 3d 87 e2 c1 3d
       -0.0531458 -0.05606999 0.07829427 0.09467035
000060 c5 62 ba bb cc 7e fb bd fe d5 6c 3d 5e 83 ff bd
       -0.005688044 -0.12280044 0.057821266 -0.12476228
000070 4c 26 1a 3c f5 e8 cb 3d 79 b5 fd bc 84 b7 a4 bd
       0.009408545 0.099565424 -0.030970322 -0.08042815
000080 43 cf a1 bd ed 3d af bd 30 4f 47 3d b7 22 5a bd
       -0.0790086 -0.08556733 0.048659503 -0.053255763
000090 de 6e 80 bd 31 c8 bf 3d 9d 70 9c bd 0e 96 d0 3d
       -0.06271146 0.09364355 -0.07638667 0.10184871
0000a0 93 73 d2 bd af fd e7 bd 81 37 ef bd a8 63 c6 3c
       -0.1027595 -0.11327683 -0.116805084 0.024217442
0000b0 fc a2 2d bd 0b 6c 96 3d ff b9 f2 bd ee 11 14 3d
       -0.042391762 0.07344826 -0.11851882 0.03614991
0000c0 5b 15 ca bd c7 6c e1 3d 9a 24 bf 3c 26 13 d8 b9
       -0.098673545 0.11007076 0.023332883 -0.00041212997
0000d0 50 56 da 3d ab bb eb bd 03 66 2f 3d ec 76 3b 39
       0.10660994 -0.11510404 0.042821895 0.00017878012
0000e0 46 f4 fd 3b 4a 9a bd bd f3 23 ca 3c 21 e3 a3 bd
       0.007750067 -0.09257944 0.024675345 -0.08002306
0000f0 54 a2 6d 3c b0 e9 e4 bd 6a 11 ed 3d 8e d6 a4 3d
       0.014504034 -0.11177385 0.11575587 0.080487356
000100 09 ea a8 3d 5b d1 53 be f3 8c 58 bc 3d f9 60 be
       0.08247764 -0.20685332 -0.013217199 -0.21970077
000110 67 b2 1b 3d 30 84 20 3d 38 f6 a4 be b1 48 f4 bc
       0.038011935 0.039188564 -0.322191 -0.029819818
000120 85 96 8f 3d c3 fd b8 bd 0f fd ad 3e 5d b7 dc 3d
       0.07011131 -0.09032776 0.3398213 0.10777161
000130 eb 3a 9d be be 93 d3 bd 9b d1 d5 3d 4b 15 83 3e
       -0.30709013 -0.10330914 0.1044037 0.25602183
000140 62 3a 49 3e c3 40 9a 3e 49 24 36 3e 35 4e 9a be
       0.19651178 0.30127534 0.17787279 -0.30137792
000150 89 09 bb be 1a 14 d5 be ba 49 85 3e 83 4a eb 3e
       -0.36530712 -0.416169 0.2603281 0.45955285
000160 30 69 f6 bd 40 63 f1 3d 4d ba 97 bd 96 86 72 3e
       -0.12031782 0.117865086 -0.07408581 0.23684153
000170 8c d5 14 bd ff 55 ce 3c bf 85 8c be 8b cf 63 3e
       -0.036336467 0.02518749 -0.2744579 0.2224714
000180 c9 05 92 bd 9b 96 91 bc d8 40 2b 3e 8b d5 4f be
       -0.0713001 -0.01777201 0.16723955 -0.20296304
000190 25 0e b7 3e f9 e4 81 be 2b ba ac be ea 02 1c 3e
       0.3575298 -0.25370005 -0.33735785 0.15235487
0001a0 bb c8 15 be 59 26 aa be c1 3e a8 bd 43 c0 6f be
       -0.14627354 -0.33232382 -0.08215094 -0.23413186
0001b0 44 43 a6 3e 54 f6 8f bd 78 d2 a7 bb 8e 0d 74 bb
       0.32473195 -0.07029405 -0.0051215254 -0.0037239525
0001c0 d7 6a cc bd fd 2f 4b bc d8 f9 15 bd 9b be 9e 3d
       -0.099813156 -0.012401578 -0.036615223 0.07751199
0001d0 2a 9c 9c 3c 60 4d 13 bd 72 42 5d 3d c3 8d 08 3f
       0.019117434 -0.035962462 0.054018445 0.5334131
0001e0 03 e5 89 bd 9c 8e 6c 3e 96 17 52 3e 60 ce 8f be
       -0.06733134 0.23101276 0.2051681 -0.2808714
0001f0 6c 26 b5 bd 4e f5 2a 3d 86 2d a9 bd 1d 0a 8d 3d
       -0.08845219 0.041737847 -0.08260636 0.068866946
000200 6c e2 eb bd f5 00 6e be a2 25 06 3d 7c 2b 94 bd
       -0.11517796 -0.23242553 0.032750733 -0.072348565
000210 97 b4 68 bc e0 70 86 bd 2c 29 b0 3d 2e ce 35 be
       -0.014203212 -0.06564498 0.08601603 -0.17754433
000220 7e 85 a6 bd 8d e9 c7 be ed 95 2e 3f 9d f9 26 3d
       -0.0813093 -0.39045373 0.6819752 0.040765394
000230 c7 0c 17 3f 99 43 db bd 5e 7c d4 3e 32 40 18 be
       0.5900387 -0.107062526 0.41501135 -0.14868239
000240 a5 24 13 3e a7 11 e3 3d fe 87 0e be ec 1e d5 3c
       0.14369448 0.11087351 -0.13919064 0.026015721
000250 43 ea c0 be 44 8b 07 3e 81 89 b4 be e8 09 8c 3a
       -0.37678728 0.1323672 -0.35261157 0.0010684105
000260 2a 65 d5 be 7a a6 81 be 03 2f e3 bd bd 36 df 3d
       -0.41678745 -0.25322324 -0.11092951 0.108991124
000270 63 61 a4 bd e2 cc 47 be 33 68 2d 3e eb c5 ba 3e
       -0.080263875 -0.1951175 0.1693428 0.36479124
000280 12 bd 08 bc 2d 32 a3 3c 4c f2 fa bd 24 de 2d 3d
       -0.008345859 0.019921387 -0.12253246 0.042448178
000290 ab aa f7 bd b6 b3 bb bc 87 2f fd 3d fb bb e3 3d
       -0.12093099 -0.022912841 0.12362581 0.11119839
0002a0 4e 8d b0 bd 38 65 07 bf e0 cf 1c bd 6d d6 11 3e
       -0.08620702 -0.5288882 -0.038284183 0.14241953
0002b0 9a 04 71 3e 2e 5d ee bd 1f 59 48 bc 54 d5 74 3d
       0.23536912 -0.11638866 -0.012228279 0.059773758
0002c0 95 76 08 3e ce 03 14 3d fa 56 09 3d 89 95 f2 3d
       0.13326485 0.03613644 0.033530213 0.11844928
0002d0 c8 34 5e 3d dc 94 94 be 87 a7 15 be 75 f5 de bd
       0.054249555 -0.2901982 -0.14614688 -0.10886661
0002e0 bd 05 c0 bd d4 01 3a be 00 ef 16 bf 8f be f8 be
       -0.093760945 -0.1816476 -0.58958435 -0.48582885
0002f0 ce 7e e1 3e 4f 9d 0f 3d 1a f1 2a bd 8a f9 86 3e
       0.44042057 0.03506213 -0.04173384 0.26362258
000300 27 9e bc bc 14 da cc bd d3 d8 2e 39 fc 71 71 3d
       -0.023024632 -0.100025326 0.00016674706 0.058946595
000310 e0 2d 8e 3c e0 65 aa 3b 12 68 ec 3e 7a 39 0a 3e
       0.01735586 0.0052001327 0.4617315 0.13498488
000320 bb 73 28 3e d5 ee 95 be de 25 4b 3e 22 6e a0 3d
       0.16450398 -0.29283777 0.19838664 0.07833506
000330 ac 99 0e 3e 31 4b fc 3d bf 4f 5a 3e 1f 55 06 3d
       0.13925809 0.12319029 0.21319483 0.03279602
000340 3d 8b 7f be 3e 0d d3 3e 8b ec 6e 3e 61 ac e7 be
       -0.24955459 0.4122104 0.23332421 -0.45248702
000350 7e 16 ac bd a6 95 4d bd ef 56 76 be 8a 2d f0 3e
       -0.084027275 -0.050191544 -0.240566 0.46909744
000360 3b b6 3b 3e 56 01 86 bd 6c 2c ab 3d a5 70 a3 be
       0.18331234 -0.065432236 0.08358082 -0.31921878
000370 39 16 98 3d b6 3e 8b 3d 69 ce c1 bc 4f b3 c4 bd
       0.07426114 0.067990705 -0.023657994 -0.09604513
000380 fd 8a 34 be 4c 13 8e 3c 4a 41 60 be 43 89 f9 3d
       -0.17631145 0.017343186 -0.21899906 0.12184384
000390 5b 1f 29 3e e7 41 88 3e a5 a9 cd be 27 07 7e 3b
       0.16515867 0.2661278 -0.4016849 0.0038761587
0003a0 13 53 8b be 2a 82 d9 3e 4b 66 ea bd d1 e6 5f 3d
       -0.27211818 0.4248212 -0.11445292 0.054663483
0003b0 11 e0 b8 be 90 55 0e be 1d d0 49 be 58 d9 31 3d
       -0.3610845 -0.13899827 -0.19708295 0.043420166
0003c0 6d 6c 88 3e 63 7f de bd ec a1 9a 3d 4f cb 5a be
       0.26645222 -0.10864141 0.075504154 -0.21366619
0003d0 10 2d 6f bd 48 e4 8e 3d b8 35 32 be 01 7a f8 3d
       -0.058392584 0.06977135 -0.17403305 0.121326454
0003e0 4f fe 22 3e ac 8b 36 be 82 53 9c be 18 f8 87 3e
       0.15917324 -0.17826718 -0.3053246 0.26556468
0003f0 b8 b7 e0 bc 44 d5 59 3e 93 15 ac bc 72 72 c4 be
       -0.027431354 0.2127276 -0.021006381 -0.38368565

layer.4.bias f4 [10]
000000 9e b4 d7 3c dc 67 e4 bd 83 46 2e bd fa 47 cb bd
       0.026331242 -0.11152622 -0.042547714 -0.09925838
000010 8a 74 04 be f6 b4 1c be f3 08 2a bd f3 57 0a 3d
       -0.12935081 -0.15303406 -0.04151244 0.03377528
000020 37 82 97 3d fb 19 cc 3d
       0.073978834 0.09965893
