Midterm6289/fashionc_net.pth (torch, 265543 bytes, 10 tensors)

conv1.weight f4 [10, 1, 5, 5]
-0.0837582 0.5274198 -0.29175532 -0.3303713 -0.051036093 0.2228492 0.27856505 0.07504828
-0.60893965 -0.18270512 0.014878109 0.5886327 -0.2029677 -0.3474002 0.23626164 -0.050897937
0.4133872 0.011645234 -0.46473476 0.2790022 0.03260228 0.14079611 -0.082179986 -0.19849685
0.11773943 -0.04150825 0.16680117 0.15113176 -0.06400313 0.1600871 0.21246149 0.048069574
0.15650272 -0.11501317 -0.06614168 0.29132557 -0.026950637 -0.3219129 0.08394986 -0.15710534
-0.10796122 -0.09393272 -0.08614689 0.1987893 0.12218221 -0.27857924 0.10613393 0.11615398
-0.2519817 -0.12601408 0.07004351 0.32623515 0.24875294 0.16069876 0.13265221 0.06347116
0.32541165 -0.104017034 -0.019993197 -0.14217526 -0.046574365 0.15954606 0.22795823 -0.03928628
0.02451978 -0.025695655 0.12855014 0.27213693 0.11829237 0.1676805 0.05188088 0.16894583
0.200756 0.2105529 0.18473372 0.23222366 0.100188844 0.13107903 -0.24795914 -0.5163206
-0.046934668 0.3471618 0.0615106 -0.060084492 -0.36378068 0.21673645 0.3795909 -0.31094825
0.090425596 -0.25053698 0.3147338 0.30471006 -0.30385733 0.1426354 -0.44110933 0.050475363
0.14927852 0.09207631 -0.15294515 -0.1419327 0.19375145 -0.03416077 -0.25096643 -0.011947873
0.19244723 0.31192344 -0.010853175 -0.39508018 -0.02807861 0.13450883 0.21948093 0.14954594
-0.39385155 -0.0718597 0.08059368 0.15970692 0.30729535 -0.13097765 -0.32803404 0.06048816
-0.08708592 0.34466973 -0.18136315 -0.41680157 0.13017845 -0.0077787586 -0.075986825 -0.5129118
-0.08013676 -0.1956379 0.3991195 -0.22723158 -0.572114 -0.3328932 -0.029272333 0.18989696
0.26540405 0.21803403 0.14427826 0.06917208 -0.009607745 -0.05792433 -0.033026498 0.21427852
0.21877426 -0.02099927 -0.04950162 -0.12095416 0.028020618 0.21477251 0.29042977 0.09040683
0.34365335 0.1059502 -0.12332118 0.22032322 0.28850642 0.4878521 0.38478208 0.31795666
-0.10255139 0.21657732 0.0727265 0.21457744 -0.0770312 -0.21044184 -0.28016403 -0.40085632
-0.2845354 -0.29229817 -0.14071149 -0.3700028 -0.47761202 -0.6490217 -0.1986308 -0.11064426
-0.32212135 -0.45317447 -0.2617152 -0.27627027 -0.22813223 -0.527227 -0.5788505 -0.39899975
-0.3245925 -0.024053859 -0.29479387 -0.52970064 -0.41706288 -0.1623987 0.042890385 -0.12525277
-0.3368959 -0.34416476 -0.28592917 0.035101578 -0.0385534 -0.16069563 -0.31044978 -0.2183411
0.14508766 -0.4563176 -0.25629604 -0.40106216 -0.21594334 0.4125599 -0.37818912 0.012142658
-0.0028085348 -0.07713262 0.35403076 -0.11907215 0.0949457 -0.049359225 -0.15122452 0.46140066
-0.2960629 0.04813324 0.12565482 0.29815128 0.48551634 -0.33425087 0.04471696 0.19130985
0.050658118 -0.1335478 -0.35154203 -0.06340941 -0.047879584 0.11861339 0.045689702 -0.41557044
-0.13171393 0.21193422 0.013954041 0.22497825 -0.33048123 -0.15222819 0.42968804 0.23715514
-0.03597841 -0.46035153 0.12027107 0.5744569 -0.020456497 -0.20776409 -0.5077114 0.011730217
0.5506551 0.04234158
00000000: 6b89 abbd fc04 073f f460 95be 6d26 a9be
00000010: 390b 51bd 9532 643e 14a0 8e3e eab2 993d
00000020: 78e3 1bbf 0d17 3bbe 50c3 733c a2b0 163f
00000030: c4d6 4fbe 70de b1be 92ee 713e 5b7a 50bd
00000040: 7da7 d33e a7cb 3e3c b7f1 edbe 60d9 8e3e
00000050: f889 053d db2c 103e fb4d a8bd c242 4bbe
00000060: 5f21 f13d 8e04 2abd edcd 2a3e 49c2 1a3e
00000070: 1314 83bd dfed 233e 818f 593e 9ae4 443d
00000080: 4042 203e 068c ebbd 4a75 87bd a028 953e
00000090: 95c7 dcbc c5d1 a4be e7ed ab3d 39e0 20be
000000a0: c61a ddbd cc5f c0bd c86d b0bd 6c8f 4b3e
000000b0: ab3a fa3d f0a1 8ebe bf5c d93d 23e2 ed3d
000000c0: bf03 81be d609 01be f972 8f3d 4b08 a73e
000000d0: 17b9 7e3e 378e 243e fbd5 073e 2bfd 813d
000000e0: 5b9c a63e e206 d5bd c6c8 a3bc 6496 11be
000000f0: c3c4 3ebd 0b60 233e e26d 693e a6ea 20bd
00000100: b5dd c83c b27f d2bc a6a2 033e 8855 8b3e
00000110: 4543 f23d 70b4 2b3e 0c81 543d 2300 2d3e
00000120: fb92 4d3e 2e9b 573e d62a 3d3e 0acc 6d3e
00000130: cf2f cd3d 9539 063e 00e9 7dbe 962d 04bf
00000140: 913e 40bd 31bf b13e 8af2 7b3d 281b 76bd
00000150: 7641 babe 29f0 5d3e bd59 c23e 9c34 9fbe
00000160: 0e31 b93d 6246 80be ca24 a13e f502 9c3e
00000170: 3093 9bbe 040f 123e 15d9 e1be 41bf 4e3d
00000180: 78dc 183e 8192 bc3d a79d 1cbe ce56 11be
00000190: c866 463e 2aec 0bbd ac7e 80be 03c1 43bc
000001a0: e310 453e 6eb4 9f3e 84d1 31bc f347 cabe
000001b0: 1d05 e6bc afbc 093e 9cbf 603e 9222 193e
000001c0: e9a6 c9be 2e2b 93bd 4d0e a53d 368a 233e
000001d0: d155 9d3e 011f 06be 14f4 a7be 6fc2 773d
000001e0: 1a5a b2bd 8d78 b03e 43b7 39be 0467 d5be
000001f0: 804d 053e f5e4 febb fb9e 9bbd 304e 03bf
00000200: be1e a4bd 4d55 48be 6459 cc3e 65af 68be
00000210: 1076 12bf fa70 aabe 88cc efbc 5974 423e
00000220: 0ae3 873e 5044 5f3e aebd 133e 17aa 8d3d
00000230: ce69 1dbc 1042 6dbd cb46 07bd d46b 5b3e
00000240: 5c06 603e a906 acbc 36c2 4abd d1b6 f7bd
00000250: 7f8b e53c 53ed 5b3e 36b3 943e 3727 b93d
00000260: 55f3 af3e 6bfc d83d d18f fcbd 699c 613e
00000270: 1db7 933e c0c7 f93e 2802 c53e 37cb a23e
00000280: 7706 d2bd 72c6 5d3e a2f1 943d 30ba 5b3e
00000290: 89c2 9dbd 117e 57be a971 8fbe 0a3d cdbe
000002a0: a0ae 91be 1ba8 95be ac16 10be 0271 bdbe
000002b0: 9089 f4be 4926 26bf df65 4bbe 7599 e2bd
000002c0: 17ed a4be 7c06 e8be 89ff 85be 4c73 8dbe
000002d0: 7f9b 69be 59f8 06bf 8c2f 14bf b249 ccbe
000002e0: fd30 a6be 990c c5bc 39ef 96be 769a 07bf
000002f0: 4489 d5be d84b 26be d4ad 2f3d 4342 00be
00000300: 9f7d acbe 5d36 b0be 4f65 92be acc6 0f3d
00000310: 2cea 1dbd 658d 24be 46f3 9ebe cf94 5fbe
00000320: dc91 143e 76a2 e9be 3c39 83be 0558 cdbe
00000330: 4020 5dbe 0d3b d33e 01a2 c1be 00f2 463c
00000340: 650f 38bb b5f7 9dbd 8543 b53e 19dc f3bd
00000350: e472 c23d e62c 4abd 9ada 1abe b53c ec3e
00000360: 8e95 97be 5c27 453d a8ab 003e 49a7 983e
00000370: 9995 f83e ee22 abbe 2229 373d bbe6 433e
00000380: e37e 4f3d c1c0 08be 51fd b3be cbdc 81bd
00000390: 621d 44bd 94eb f23d 2025 3b3d a6c5 d4be
000003a0: 04e0 06be 4905 593e 7d9f 643c b360 663e
000003b0: d634 a9be b5e1 1bbe 1200 dc3e ccd8 723e
000003c0: 195e 13bd 32b3 ebbe ae50 f63d 9b0f 133f
000003d0: 6294 a7bc 1cc0 54be 60f9 01bf 1930 403c
000003e0: bcf7 0c3f 5d6e 2d3d

conv1.bias f4 [10]
-0.020281183 0.28595868 0.15408643 0.18967712 0.06907455 0.29369646 0.34485677 -0.5649518
0.041843675 0.23562711
00000000: b924 a6bc 2d69 923e d5c8 1d3e b83a 423e
00000010: f576 8d3d 625f 963e 1191 b03e aea0 10bf
00000020: 4664 2b3d 3c48 713e

conv2.weight f4 [25, 10, 5, 5]
-0.028931864 0.001729225 0.03391959 0.035632063 -0.041490342 -0.017404936 -0.054541912 -0.044998404
-0.034426384 -0.038164016 0.058539405 0.03530701 -0.028697327 -0.025378428 0.02163788 0.024364404
0.036343805 0.009309527 0.035254747 0.062512025 -0.042476006 -0.021801619 -0.044082835 0.03737102
0.005705242 0.06100981 0.012290919 -0.04895751 -0.010948376 -0.018649934 0.012707325 -0.025876464
0.028917762 0.05118261 -0.040238958 0.021496162 0.04865218 0.04116423 -0.014496534 0.012723612
-0.0549727 -0.048713285 -0.034943715 0.04582997 -0.025298364 -0.030131318 0.015702026 -0.021234686
0.047496557 0.05671652 0.02369299 -0.0043006954 -0.04903231 -0.023833971 0.035026312 -0.064383104
0.03315599 -0.03735894 -0.052188557 0.023904549 -0.017211208 -0.042626683 -0.02956949 0.038377132
0.0063897367 0.045071147 0.046014447 -0.0627656 -0.039296456 -0.047071118 -0.021101126 -0.015208091
-0.012343208 0.060979217 0.0048775524 -0.0064951642 0.012570471 0.008436789 -0.060348637 0.006630264
-0.026213 -0.047608633 -0.031087842 -0.025597425 0.037999284 0.017683333 0.034959536 -0.03206345
-0.012131148 0.018892493 0.04781818 0.038918868 0.04822604 0.026028423 -0.004142125 0.05260184
0.01220721 -0.01859342 0.054372687 -0.020325733 -0.061080266 -0.019097677 -0.04064852 -0.008052554
0.04565096 0.047933515 -0.00040397872 0.02693855 0.053640753 -0.025993528 -0.008299207 -0.010837795
0.017647479 0.059047353 -0.05783823 -0.020596532 -0.04545433 -0.035657804 0.034115143 -0.020864062
-0.012166558 -0.02627178 0.050671548 0.00709753 -0.051758587 0.026139691 0.012752446 -0.007516255
-0.05104742 0.038502287 -0.038408995 -0.05114037 0.034761813 -0.06270541 -0.025157083 -0.057697136
-0.057414412 0.0025710417 -0.032254703 0.0073816646 -0.034646172 -0.008085266 -0.05803352 -0.055146955
0.013349355 -0.0042596697 0.032773077 0.06000858 0.03751375 0.020180305 0.008941674 0.047337085
-0.04028517 -0.0065437844 -0.028209252 -0.035475217 0.04926666 0.033403654 -0.044473276 -0.04102556
0.049340572 -0.049512513 -0.03463698 -0.007281938 0.005965177 0.03342009 0.028920077 -0.05994839
-0.03784783 0.030331926 0.034089267 0.010335364 -0.038750213 -0.034679875 0.046053328 0.00406911
0.05017031 -0.02876329 0.02636586 -0.05820446 -0.047730148 -0.016005082 0.049154762 -0.052813075
-0.04651355 -0.0027359936 -0.022705615 -0.019541578 -0.003892911 -0.011958186 -0.02166022 -0.045535147
-0.050215106 0.050603192 0.05668854 0.009261368 -0.038980555 -0.04781901 -0.01288832 -0.033035904
-0.04890465 -0.061720867 -0.055563994 0.024436837 -0.04681819 -0.040072806 0.030029945 -0.0047550234
0.025547912 -0.047130723 -0.023749383 0.03355867 0.03576134 0.04931713 -0.05265505 -0.05615459
0.015635362 -0.0027779974 -0.058116656 -0.025299331 0.025144055 0.010851406 -0.018198641 0.043241028
-0.052926295 -0.06254018 0.023394637 -0.03222295 0.03885487 -0.037680626 0.048958745 -0.03854341
-0.05720386 0.030012704 -0.04076917 0.059709817 0.013945744 -0.0380282 -0.01858947 -0.045414086
-0.004388659 0.021425333 -0.028084068 -0.025754377 -0.041597094 0.06177262 0.044955023 0.025187587
-0.045128323 0.025795775 0.13645878 0.048451945 -0.02525817 0.030285344 -0.026788628 0.0044771084
00000000: 8402 edbc 2aa7 e23a 45ef 0a3d edf2 113d
00000010: c7f1 29bd cc94 8ebc 5767 5fbd 3f50 38bd
00000020: ae02 0dbd df51 1cbd 04c7 6f3d 159e 103d
00000030: a816 ebbc 6ce6 cfbc ec41 b13c dc97 c73c
00000040: 3edd 143d fd86 183c 4867 103d 4e06 803d
00000050: 52fb 2dbd 4f99 b2bc 3490 34bd 5b12 193d
00000060: 0af3 ba3b 6ce5 793d da5f 493c ac87 48bd
00000070: d160 33bc bfc7 98bc 6232 503c e1fa d3bc
00000080: f1e4 ec3c dba4 513d 9bd1 24bd b818 b03c
00000090: 8247 473d d39b 283d df82 6dbc b276 503c
000000a0: 0e2b 61bd 9587 47bd 2421 0fbd 35b8 3b3d
000000b0: 843e cfbc f4d5 f6bc 89a1 803c 5df4 adbc
000000c0: c08b 423d 954f 683d cd17 c23c d9ec 8cbb
000000d0: 1ad6 48bd 763f c3bc c077 0f3d 4adb 83bd
000000e0: 93ce 073d b005 19bd abc3 55bd 79d3 c33c
000000f0: 85fe 8cbc 5199 2ebd b73b f2bc 5731 1d3d
00000100: ff60 d13b 869c 383d a579 3c3d 408b 80bd
00000110: 52f5 20bd a5cd 40bd 45dc acbc 5b2b 79bc
00000120: 2b3b 4abc 58c5 793d e0d3 9f3b 63d5 d4bb
00000130: 60f4 4d3c 753a 0a3c 2230 77bd b042 d93b
00000140: a5bc d6bc 4501 43bd eeab febc b1b1 d1bc
00000150: 23a5 1b3d a3dc 903c bb31 0f3d f754 03bd
00000160: b9c1 46bc 6ec4 9a3c ffdc 433d 6469 1f3d
00000170: ab88 453d 8f39 d53c aaba 87bb 0775 573d
00000180: c000 483c 3a51 98bc e5b5 5e3d 2782 a6bc
00000190: 4d2f 7abd bb72 9cbc 107f 26bd dcee 03bc
000001a0: 80fc 3a3d ef55 443d 1bcd d3b9 3cae dc3c
000001b0: 68b6 5b3d 61f0 d4bc 66f9 07bc 0291 31bc
000001c0: 7291 903c a3db 713d c8e7 6cbd 0fba a8bc
000001d0: 522e 3abd eb0d 12bd 52bc 0b3d 1ceb aabc
000001e0: 3e56 47bc ea37 d7bc f88c 4f3d 6692 e83b
000001f0: d000 54bd e822 d63c a3ef 503c eb4a f6bb
00000200: 1917 51bd 93b4 1d3d c052 1dbd 9178 51bd
00000210: 6762 0e3d b26b 80bd 3a16 cebc d553 6cbd
00000220: 602b 6bbd ec7e 283b 821d 04bd e4e1 f13b
00000230: 25e9 0dbd 1078 04bc 8eb4 6dbd c6e1 61bd
00000240: 41b7 5a3c b394 8bbb 103d 063d 8fcb 753d
00000250: 05a8 193d 2b51 a53c 1980 123c 88e4 413d
00000260: 1002 25bd 3e6d d6bb 1717 e7bc 764e 11bd
00000270: d6cb 493d 45d2 083d 9c29 36bd 6b0a 28bd
00000280: 5719 4a3d a2cd 4abd 82df 0dbd 539d eebb
00000290: 8877 c33b 81e3 083d cce9 ec3c 718c 75bd
000002a0: 5406 1bbd a97a f83c 30a1 0b3d a955 293c
000002b0: 8bb8 1ebd 7c0c 0ebd 6aa2 3c3d 2b56 853b
000002c0: 627f 4d3d fea0 ebbc 37fd d73c cd67 6ebd
000002d0: b080 43bd 171d 83bc 8156 493d 8652 58bd
000002e0: fe84 3ebd 5b4e 33bb 2001 babc a915 a0bc
000002f0: 3520 7fbb 44ec 43bc c670 b1bc 1083 3abd
00000300: 5bae 4dbd 4b45 4f3d 3e32 683d febc 173c
00000310: 13aa 1fbd dedd 43bd 8829 53bc a850 07bd
00000320: 3e50 48bd 05cf 7cbd 1297 63bd c32f c83c
00000330: 6ec4 3fbd 6223 24bd 5c01 f63c 07d0 9bbb
00000340: db49 d13c 250c 41bd 118e c2bc d174 093d
00000350: 7c7a 123d c200 4a3d d2ac 57bd 5b02 66bd
00000360: bb15 803c 100f 36bb bb0b 6ebd 8b40 cfbc
00000370: e8fa cd3c 18ca 313c 5115 95bc 811d 313d
00000380: 3ec9 58bd 1115 80bd 1ca6 bf3c 36fc 03bd
00000390: 4926 1f3d 0057 1abd f788 483d b2df 1dbd
000003a0: 984e 6abd 34dd f53c 93fd 26bd 4892 743d
000003b0: b17c 643c 75c3 1bbd f248 98bc 1f04 3abd
000003c0: bdce 8fbb 2e84 af3c 8f10 e6bc d8fa d2bc
000003d0: b761 2abd 4905 7d3d c222 383d 3356 ce3c
000003e0: 7ad8 38bd a951 d33c dabb 0b3e 8c75 463d
000003f0: 39ea cebc f818 f83c d373 dbbc b5b4 923b

conv2.bias f4 [25]
-0.052248694 0.003011435 0.07787666 -0.03322186 0.015708964 0.029093247 0.010198607 0.115335725
0.053556368 0.07288967 0.047530316 0.022970246 0.058148727 0.03287745 -0.071579166 0.047337532
-0.024189804 -0.009517615 0.05355975 -0.00601692 -0.058339957 -0.026863202 0.020917127 -0.07716315
0.059964944
00000000: ba02 56bd 7f5b 453b cc7d 9f3d a513 08bd
00000010: 16b0 803c f654 ee3c 0f18 273c 2335 ec3d
00000020: ec5d 5b3d 2e47 953d 26af 423d 192c bc3c
00000030: 5c2d 6e3d 81aa 063d 1998 92bd 00e5 413d
00000040: b229 c6bc c5ef 1bbc 7861 5b3d 9529 c5bb
00000050: e1f5 6ebd 3810 dcbc 655a ab3c b707 9ebd
00000060: cd9d 753d

fc1.weight f4 [120, 400]
0.0014530246 0.0028372465 -0.020383062 -0.034143224 0.026737472 0.047745645 -0.038243793 -0.049682837
-0.0033228311 -0.021354625 -0.0018822192 0.033464245 0.014017554 -0.02204458 0.015078675 -0.016114747
0.022504631 0.00463766 -0.050093453 0.08263954 0.00068852224 0.03594549 0.032595742 -0.033334073
-0.027043017 -0.05474499 -0.015806023 0.0034908138 -0.047345564 0.022378312 -0.0583711 0.0032445998
-0.019671159 -0.004387805 -0.01689678 0.0014974653 -0.028791428 -0.0042110994 0.02813048 0.061672177
0.013002003 0.05296188 -0.021012617 0.026287585 0.013004009 0.074848495 -0.0382311 -0.018901894
0.017431015 0.0039760796 0.025628237 0.021115655 0.006461311 0.04803773 0.021539709 -0.020390315
0.073170714 -0.017144384 -0.04876481 0.01737495 0.027858203 0.033821866 0.03254753 0.06873664
-0.013716821 -0.014977416 -0.006763716 0.00012080529 -0.016531855 0.0018008515 0.03479866 -0.020958936
-0.025577351 -0.05374832 0.04830583 -0.071402624 -0.033930093 -0.027916403 0.08050905 -0.05625286
-0.02188521 -0.004131727 0.03999888 -0.036031887 -0.015535585 -0.02078184 0.0754143 0.03832407
0.06653844 0.038997807 -0.0037274065 0.005156811 0.06798724 -0.059490692 -0.02112035 0.04930944
-0.028083436 -0.030732585 -0.04143139 -0.019571654 -0.008101927 -0.03804158 -0.045629248 0.006525028
-0.04252858 0.022389287 -0.0028412237 -0.023728803 -0.041266687 0.011143997 -0.009133807 0.004294555
-0.028689414 -0.024596974 -0.004957953 0.0025602574 0.060433142 0.057082284 0.010062867 -0.046371423
0.05160061 -0.033248063 -0.024105635 -0.019175125 0.023306442 -0.043224238 0.041321814 0.0014319055
0.05362419 0.036661208 -0.030916646 -0.0018653492 0.0025420464 0.026691072 -0.0118596535 0.0148261795
0.019984016 -0.04322224 -0.024765205 0.023631448 0.013108369 -0.05140129 0.023012757 0.0015907034
0.049400803 -0.021523314 0.04065739 -0.0024621482 -0.015814867 -0.010920982 -0.013130451 0.029775761
-0.0075727333 0.03482929 0.017858965 0.039868813 0.034654915 0.037577737 -0.0741744 0.0018558665
-0.017772103 -0.036477286 -0.003883879 0.072016634 0.007837275 0.013996516 -0.010858665 -0.028682414
-0.061014555 -0.026299955 -0.029344134 0.03419408 -0.040714864 0.00036447775 0.00061468384 -0.037316713
-0.020284534 -0.0045355563 -0.0033098091 -0.023635926 -0.017233983 -0.043184686 -0.01717299 -0.047411654
0.029463561 0.042860065 0.031758435 0.039557304 -0.04728144 0.017754005 -0.04266355 0.044913765
0.015840435 0.06667298 -0.022679966 0.0108889425 0.026286744 0.033268858 0.0004543994 -0.0048818374
0.02408872 -0.0070110024 -0.020088315 0.017625744 0.083576165 0.03029229 -0.026346976 -0.029965568
-0.06067621 0.012170899 0.041516874 0.05805905 0.024203045 -0.016044818 -0.005931382 0.011947977
-0.014864578 -0.015686858 -0.056358486 -0.028549502 0.04450472 -0.08690785 0.017170193 -0.026684968
-0.030547014 0.049676117 -0.052170727 -0.014784556 -0.021423727 0.083193704 -0.0009245859 -0.034859814
-0.05804809 0.019709805 0.0542377 -0.00844694 -0.012341226 0.0063572004 -0.08917396 0.06556559
0.011691831 -0.00028600448 0.00033310094 -0.05832341 0.00026832763 0.027654873 -0.02518318 0.037796043
0.01830336 -0.004272376 0.015305687 0.02704964 0.024632977 0.002605582 0.028414426 -0.03681323
00000000: 6a73 be3a 19f1 393b 61fa a6bc c4d9 0bbd
00000010: 8b08 db3c f090 433d 86a5 1cbd 3b80 4bbd
00000020: dbc3 59bb e5ef aebc ccb4 f6ba ce11 093d
00000030: e2a9 653c d696 b4bc 8c0c 773c 1303 84bc
00000040: a25b b83c 83f7 973b cb2e 4dbd eb3e a93d
00000050: f27d 343a 943b 133d 1d83 053d 4f89 08bd
00000060: 5189 ddbc 483c 60bd a27b 81bc 23c6 643b
00000070: 6ced 41bd b952 b73c 8916 6fbd 5aa3 543b
00000080: 6925 a1bc 93c7 8fbb 1e6b 8abc 9946 c43a
00000090: 00dc ebbc 43fd 89bb e471 e63c f79b 7c3d
000000a0: 5a06 553c 8eee 583d a722 acbc 1059 d73c
000000b0: c40e 553c 2b4a 993d 3798 1cbd 25d8 9abc
000000c0: 7dcb 8e3c c649 823b 4ff2 d13c bdfa ac3c
000000d0: 68b9 d33b 36c3 443d 0b74 b03c 9709 a7bc
000000e0: 87da 953d 6172 8cbc 9cbd 47bd e955 8e3c
000000f0: e336 e43c cc88 0a3d 8f50 053d ccc5 8c3d
00000100: 84bc 60bc d663 75bc 2aa2 ddbb d958 fd38
00000110: d06d 87bc 8d0a ec3a 0a89 0e3d 13b2 abbc
00000120: 9887 d1bc 3327 5cbd 56dc 453d 8a3b 92bd
00000130: 48fa 0abd f1b0 e4bc eee1 a43d 6669 66bd
00000140: 9d48 b3bc 7063 87bb ded5 233d 2c96 13bd
00000150: f788 7ebc ad3e aabc d072 9a3d b3f9 1c3d
00000160: 4e45 883d 2abc 1f3d 8147 74bb 77fa a83b
00000170: e53c 8b3d 83ac 73bd 9604 adbc b2f8 493d
00000180: 3c0f e6bc e7c2 fbbc f6b3 29bd bc54 a0bc
00000190: f2bd 04bc 7dd1 1bbd bce5 3abd e7cf d53b
000001a0: 7332 2ebd bd69 b73c d333 3abb e862 c2bc
000001b0: 4207 29bd 5095 363c f7a5 15bc 57b9 8c3b
000001c0: 1006 ebbc 987f c9bc 5376 a2bb fec9 273b
000001d0: be88 773d 1dcf 693d b9de 243c f6ef 3dbd
000001e0: 295b 533d 1f2f 08bd 2e79 c5bc 2715 9dbc
000001f0: 27ed be3c e60b 31bd 1041 293d c7ae bb3a
00000200: 0aa5 5b3d 102a 163d e844 fdbc bc7e f4ba
00000210: 7698 263b 3ca7 da3c fe4e 42bc 81e9 723c
00000220: 85b5 a33c ce09 31bd 66e0 cabc bd96 c13c
00000230: 7cc4 563c 298a 52bd 4085 bc3c 267f d03a
00000240: 7f58 4a3d a951 b0bc 5d88 263d fe5b 21bb
00000250: 2e8e 81bc ebed 32bc 1a21 57bc 4cec f33c
00000260: b124 f8bb 28a9 0e3d f74c 923c 7b4d 233d
00000270: 50f2 0d3d 1deb 193d bfe8 97bd 8c40 f33a
00000280: cd96 91bc 3569 15bd ad88 7ebb 757d 933d
00000290: ea67 003c a551 653c 8be8 31bc 62f7 eabc
000002a0: 66ea 79bd 0173 d7bc 1c63 f0bc 170f 0c3d
000002b0: a1c4 26bd 6017 bf39 bc22 213a 69d9 18bd
000002c0: c02b a6bc 019f 94bb 62e9 58bb 21a0 c1bc
000002d0: 482e 8dbc 6de2 30bd 5fae 8cbc b932 42bd
000002e0: 915d f13c 098e 2f3d 2215 023d d706 223d
000002f0: 2faa 41bd d970 913c f9bf 2ebd 7ff7 373d
00000300: cdc3 813c d88b 883d 56cb b9bc 8967 323c
00000310: 4c57 d73c ed44 083d 743c ee39 d2f7 9fbb
00000320: b555 c53c 8dbc e5bb 4090 a4bc dd63 903c
00000330: fb29 ab3d 8927 f83c 9dd5 d7bc 5a7a f5bc
00000340: 9e87 78bd 7368 473c 990d 2a3d 54cf 6d3d
00000350: 7745 c63c 6c70 83bc 0a5c c2bb 73c1 433c
00000360: 8f8a 73bc ba81 80bc 28d8 66bd a5e0 e9bc
00000370: 954a 363d befc b1bd 81a8 8c3c 6f9a dabc
00000380: bb3d fabc 2f79 4b3d f9b0 55bd ec3a 72bc
00000390: d080 afbc 7661 aa3d e95f 72ba 2ac9 0ebd
000003a0: d6c3 6dbd 7576 a13c 5a28 5e3d 0965 0abc
000003b0: db32 4abc 1050 d03b d6a0 b6bd 4147 863d
000003c0: 188f 3f3c dff2 95b9 0da4 ae39 87e4 6ebd
000003d0: 53ae 8c39 798c e23c f54c cebc 06d0 1a3d
000003e0: eef0 953c 4aff 8bbb b4c4 7a3c 3597 dd3c
000003f0: 19cb c93c 69c2 2a3b 5fc5 e83c 78c9 16bd

fc1.bias f4 [120]
0.03795611 0.01662499 -0.009366553 0.010267496 -0.016875504 0.027353479 -0.05512257 0.046682112
0.033461567 0.010030711 0.03284677 0.023455627 -0.030118035 0.0047779703 0.0284787 0.039718654
-0.013582715 -0.03523236 -0.032770324 -0.041851018 -0.024883656 0.04848045 0.02534392 -0.037049774
0.025867011 0.0034447133 -0.017324168 -0.004574669 -0.05512836 -0.02962682 -0.03292824 0.018361274
0.034261562 0.027547441 -0.041119475 0.02170125 -0.0064398423 0.0111662755 0.045521736 0.044046625
-0.002734152 -0.024477804 -0.03930045 -0.020582365 0.027926236 0.021041978 -0.03922931 0.07138261
0.057131067 -0.006949943 0.010776183 0.04251196 0.033117127 0.035468586 -0.012713665 0.012402649
0.033215143 0.035007276 0.028745906 -0.02448373 0.008223416 0.019100795 -0.0387984 0.034098078
0.039695974 -0.0034996253 0.019799545 -0.022246448 -0.00023505797 -0.037685387 -0.006302679 0.02718968
-0.03137762 0.062115327 -8.2163846e-05 0.05312906 -0.021383658 -0.02044852 -0.0017932019 0.056626312
-0.062668376 0.004442049 -0.040520735 0.04070201 -0.03166838 -0.041507 0.0024229723 -0.002817468
0.08655424 -0.010661628 0.016134158 -0.00088241254 -0.0068710833 0.037640665 -0.024638982 0.036293134
-0.020912526 0.034764413 -0.041938115 0.022074273 0.002021148 -0.024338864 0.04561496 -0.017370341
-0.043930296 -0.0051993583 0.008892886 -0.02799689 0.036322188 0.038808152 0.006117221 -0.029544845
0.024009688 -0.030032614 0.0533232 0.05241199 0.042323757 0.06318216 0.018651348 0.04608265
00000000: de77 1b3d 2231 883c 2c76 19bc 0039 283c
00000010: 7f3e 8abc 6714 e03c 34c8 61bd be35 3f3d
00000020: ff0e 093d da57 243c 568a 063d 0426 c03c
00000030: 19ba f6bc 8590 9c3b 2a4c e93c 07b0 223d
00000040: 098a 5ebc cf4f 10bd 2d3a 06bd f96b 2bbd
00000050: cfd8 cbbc 7093 463d 0d9e cf3c 81c1 17bd
00000060: 0ee7 d33c b3c0 613b 6aeb 8dbc 1be7 95bb
00000070: 46ce 61bd f2b3 f2bc c3df 06bd 626a 963c
00000080: da55 0c3d 2cab e13c e56c 28bd d2c6 b13c
00000090: 5005 d3bb c1f2 363c 0075 3a3d 3c6a 343d
000000a0: 752f 33bb ad85 c8bc 82f9 20bd 599c a8bc
000000b0: 90c5 e43c 3a60 ac3c eaae 20bd 0c31 923d
000000c0: 4402 6a3d 59bc e3bb 968e 303c 0521 2e3d
000000d0: d3a5 073d 8247 113d fa4c 50bc 7b34 4b3c
000000e0: 9a0c 083d ca63 0f3d 897c eb3c 1a92 c8bc
000000f0: 82bb 063c 4579 9c3c 12eb 1ebd 6daa 0b3d
00000100: 3f98 223d f859 65bb a832 a23c 2f3e b6bc
00000110: e579 76b9 fe5b 1abd b486 cebb e4bc de3c
00000120: d285 00bd a46c 7e3d 614f acb8 db9d 593d
00000130: c82c afbc a883 a7bc df09 ebba fef0 673d
00000140: 4758 80bd 9c8e 913b 12f9 25bd 27b7 263d
00000150: b4b6 01bd 3e03 2abd bbca 1e3b 45a5 38bb
00000160: 5943 b13d 1cae 2ebc c82b 843c b451 67ba
00000170: d326 e1bb 192d 1a3d b1d7 c9bc 1ca8 143d
00000180: bf50 abbc 2165 0e3d 4dc7 2bbd 1bd5 b43c
00000190: 3d75 043b 4c62 c7bc c1d6 3a3d 3f4c 8ebc
000001a0: 41f0 33bd 615f aabb 78b3 113c bc59 e5bc
000001b0: 93c6 143d 4cf5 1e3d f872 c83b 0808 f2bc
000001c0: f7af c43c f506 f6bc 6e69 5a3d f4ad 563d
000001d0: ad5b 2d3d a665 813d b6ca 983c 29c1 3c3d

fc2.weight f4 [84, 120]
0.0225692 -0.08544912 0.019041933 -0.108857766 0.14421612 -0.031348296 -0.017215556 -0.014581686
0.063913174 0.040865038 -0.08341166 0.021558108 -0.037893932 0.054559663 0.078175545 -0.08157625
0.01886002 -0.01186218 -0.084835574 -0.058253538 0.083717115 0.083583884 -0.0019157913 0.10219448
0.084242955 0.03118069 0.00064527313 -0.02085399 0.104542896 -0.0040278006 -0.02720239 0.0154626155
0.084516525 0.08949424 -0.028808 -0.04792446 -0.046033405 0.0035616218 -0.017462531 0.005180247
-0.0004910466 0.01977281 -0.089063525 -0.06903013 -0.0040194127 -0.020510988 -0.07378916 -0.012713666
-0.05140497 0.11860869 -0.040589403 0.052208345 -0.07642861 -0.009703667 -0.030003661 0.019501911
0.0016940295 -0.0203106 0.0019515054 0.01512587 -0.07586621 0.041996468 -0.010310689 -0.0822227
0.042457998 -0.07451282 -0.0011751805 0.08348383 0.112286635 0.06580429 -0.02094806 -0.08011767
-0.053969815 -0.04633792 -0.10796009 0.009442781 -0.008545333 0.05534478 -0.078074194 -0.017796498
0.07082574 0.046368778 0.0068120034 -0.055119347 0.038840123 0.064067736 -0.017970685 0.062179454
-0.025004176 -0.00033403575 -0.026516244 -0.017387142 -0.061157305 -0.06724538 0.07174633 0.1534014
-0.026800487 -0.019162709 0.074706286 -0.023156254 -0.014608425 0.052803263 -0.010640132 -0.016368179
3.9901894e-05 0.01650151 -0.06227673 0.0725679 -0.09967982 0.08078282 0.0500583 0.03149244
0.08456918 -0.08370517 -0.011805021 -0.04951706 0.05437904 -0.061355844 0.046932545 0.10565669
-0.07205095 0.069917075 0.009594367 0.06455 -0.08961122 -0.055951554 -0.09098348 0.068014294
0.04275715 0.0082696015 -0.091201715 -0.015383889 -0.08230683 -0.009056072 -0.0022204486 0.015432276
0.11852682 0.07561177 0.034482718 0.06851637 -0.012579881 0.0017134581 0.04342624 -0.030888569
0.0018179695 0.035993125 0.02035563 0.017415494 -0.07132597 0.020528967 0.083931856 -0.11700138
-0.11622912 0.023375966 -0.063351616 -0.08688402 -0.027224472 0.093959466 -0.04107984 0.06692473
-0.0124723315 -0.08756169 0.06474252 0.05394345 0.03450804 -0.036894124 -0.047284123 -0.07129704
0.12918055 -0.029153503 0.007604612 0.12687758 -0.097246066 -0.06490463 -0.0864014 0.021446541
0.043650053 0.07764946 0.05101616 0.00193923 0.06177046 0.060048632 -0.022792986 -0.026568314
-0.07247883 0.087013856 0.014735542 0.069371976 -0.10437971 -0.009325106 -0.0007268545 0.009516213
-0.09547687 0.022503186 -0.01986445 -0.034557935 0.081487365 -0.056581885 -0.03357526 -0.07896283
-0.13815151 -0.077792026 -0.06181505 -0.036864262 -0.014631197 0.07419644 0.00818532 -0.06575128
-0.0472906 0.10306305 0.015286195 -0.06204392 -0.054759875 0.08886946 -0.061204486 0.07053098
-0.04206468 0.09923398 0.0011557435 0.06803294 -0.032673478 0.06903513 0.015747763 -0.08109968
-0.06547825 0.062494557 -0.086846076 0.085628085 0.040111687 0.048126925 -0.06232455 0.065588966
0.06285806 0.049130663 0.023958683 -0.08869658 -0.043505497 -0.045978114 0.07809707 0.08609799
-0.0735279 0.046028826 0.04740943 0.09194117 -0.0146529535 -0.0033982962 0.01087534 0.031599693
-0.06805279 -0.083196074 0.088181846 -0.061566163 0.07471813 0.09244126 0.10447916 -0.033351716
00000000: 0be3 b83c f3ff aebd d4fd 9b3c d2f0 debd
00000010: 64ad 133e 1267 00bd a307 8dbc 06e8 6ebc
00000020: e9e4 823d 1962 273d bbd3 aabd a19a b03c
00000030: ab36 1bbd f479 5f3d 801a a03d 7311 a7bd
00000040: 5480 9a3c 9759 42bc 46be adbd 439b 6ebd
00000050: e173 ab3d 072e ab3d 4a1b fbba 574b d13d
00000060: 9287 ac3d a56e ff3c 8c27 293a fdd5 aabc
00000070: 961a d63d a4fb 83bb 8cd7 debc e956 7d3c
00000080: 0017 ad3d c248 b73d c1fe ebbc 704c 44bd
00000090: 868d 3cbd 196a 693b 950d 8fbc 10bf a93b
000000a0: 94b9 00ba 97fa a13c f066 b6bd ab5f 8dbd
000000b0: 47b5 83bb a906 a8bc c51e 97bd fb4c 50bc
000000c0: 058e 52bd 1de9 f23d 1341 26bd 6bd8 553d
000000d0: 9a86 9cbd 21fc 1ebc 3dca f5bc 79c2 9f3c
000000e0: 330a de3a 6a62 a6bc a8c9 ff3a 7fd2 773c
000000f0: be5f 9bbd 7d04 2c3d 2aee 28bc 6064 a8bd
00000100: 70e8 2d3d 2d9a 98bd 8408 9aba 92f9 aa3d
00000110: 89f6 e53d 66c4 863d 449b abbc bc14 a4bd
00000120: 740f 5dbd d5cc 3dbd 2e1a ddbd e5b5 1a3c
00000130: b901 0cbc 35b1 623d 5de5 9fbd f6c9 91bc
00000140: 160d 913d 30ed 3d3d 3a37 df3b d3c4 61bd
00000150: d216 1f3d f235 833d 4237 93bc e2af 7e3d
00000160: 8fd5 ccbc 8521 afb9 9838 d9bc 7b6f 8ebc
00000170: 1580 7abd f2b7 89bd bdef 923d 4215 1d3e
00000180: b28c dbbc 1dfb 9cbc 9cff 983d 2fb2 bdbc
00000190: 2d58 6fbc 3c48 583d f353 2ebc 8f16 86bc
000001a0: 555c 2738 2d2e 873c e215 7fbd 7b9e 943d
000001b0: ef24 ccbd 7771 a53d ef09 4d3d 37fe 003d
000001c0: 9b32 ad3d 9e6d abbd d969 41bc 67d2 4abd
000001d0: 8ebc 5e3d 4450 7bbd 573c 403d 8962 d83d
000001e0: 738f 93bd af30 8f3d b131 1d3c ca32 843d
000001f0: 1686 b7bd 752d 65bd 8c55 babd 144b 8b3d
00000200: 1f22 2f3d 397d 073c f7c7 babd b50c 7cbc
00000210: 7c90 a8bd eb5f 14bc f284 11bb a8d7 7c3c
00000220: 30be f23d 58da 9a3d c03d 0d3d 5052 8c3d
00000230: d81b 4ebc 1d96 e03a b7df 313d 060a fdbc
00000240: ef48 ee3a 876d 133d dac0 a63c f0aa 8e3c
00000250: 5a13 92bd 5d2c a83c 77e4 ab3d 6b9e efbd
00000260: 8809 eebd f47e bf3c 7ebe 81bd 40f0 b1bd
00000270: db05 dfbc d26d c03d 5643 28bd d50f 893d
00000280: c058 4cbc 8b53 b3bd ba97 843d cff3 5c3d
00000290: 4d58 0d3d 4b1e 17bd ffac 41bd 2f04 92bd
000002a0: e847 043e 54d3 eebc 1c30 f93b 32ec 013e
000002b0: f228 c7bd b8ec 84bd 38f3 b0bd a8b0 af3c
000002c0: 66ca 323d ae06 9f3d 52f6 503d c32d fe3a
000002d0: 0603 7d3d 8ef5 753d 5bb8 babc cba5 d9bc
000002e0: c86f 94bd 5234 b23d 586d 713c e512 8e3d
000002f0: 08c5 d5bd 54c8 18bc 618a 3eba e4e9 1b3c
00000300: 6189 c3bd 9a58 b83c c5ba a2bc 9f8c 0dbd
00000310: d9e2 a63d 68c2 67bd 3686 09bd 44b7 a1bd
00000320: 9777 0dbe 6d51 9fbd c731 7dbd fbfe 16bd
00000330: b0b7 6fbc 4ef4 973d b81b 063c 9ba8 86bd
00000340: cab3 41bd b812 d33d f372 7a3c c421 7ebd
00000350: e44b 60bd 3101 b63d 8eb1 7abd 8c72 903d
00000360: 044c 2cbd 2f3b cb3d 517c 973a db54 8b3d
00000370: a0d4 05bd 4a62 8d3d 7401 813c 9717 a6bd
00000380: 7619 86bd 4bfa 7f3d 5bdc b1bd c75d af3d
00000390: 274c 243d bd20 453d 0748 7fbd 8253 863d
000003a0: babb 803d 3c3d 493d 0045 c43c 8da6 b5bd
000003b0: d232 32bd 8c53 3cbd 5bf1 9f3d 2554 b03d
000003c0: cc95 96bd b988 3c3d 6430 423d a74b bc3d
000003d0: f112 70bc f3b5 5ebb 7b2e 323c ae6e 013d
000003e0: 435f 8bbd b462 aabd af98 b43d cd2c 7cbd
000003f0: d205 993d d851 bd3d 2bf9 d53d cf9b 08bd

fc2.bias f4 [84]
0.02601314 -0.022192728 -0.07516191 -0.053911947 -0.007362239 0.04394324 -0.067750424 -0.049471892
-0.059349585 0.019953974 -0.08289538 -0.09379657 0.063258275 -0.03283466 -0.03300908 0.11600116
-0.01609704 0.070071675 0.036182627 0.024653602 -0.09145877 0.07793486 -0.06634207 0.041206434
-0.027356263 0.09001165 -0.008658905 -0.06690303 0.030631175 0.08911747 0.049080014 0.07860156
0.012149337 0.09111108 0.05817353 -0.03407344 -0.025461474 0.06105867 -0.030557266 -0.01881475
-0.017635789 -0.017418819 -0.08246647 -0.059766885 0.074754395 -0.06751678 0.08067336 0.10166757
0.0068570413 0.08325542 0.019991338 0.082763724 -0.017861696 0.030636812 0.092871025 -0.08162868
-0.08481582 -0.010386242 0.011274559 -0.055237036 0.01103499 0.078200534 -0.026915913 0.07422717
-0.002999938 -0.039181788 -0.020833965 -0.036269262 -0.0032878837 -0.029489616 0.10516404 -0.07621436
-0.02475127 -0.0018654624 -0.035210896 -0.043013625 -0.03760493 -0.024212575 0.01648364 -0.021747803
0.10767448 -0.037477754 0.0003979414 0.040614937
00000000: 8219 d53c 86cd b5bc 7dee 99bd c6d2 5cbd
00000010: f03e f1bb d4fd 333d bcc0 8abd 0aa3 4abd
00000020: 8d18 73bd 8476 a33c 0ec5 a9bd 6b18 c0bd
00000030: 8e8d 813d a37d 06bd 8734 07bd 0492 ed3d
00000040: f1dd 83bc bd81 8f3d 3c34 143d 5af6 c93c
00000050: bc4e bbbd 509c 9f3d 5ade 87bd 14c8 283d
00000060: 3e1a e0bc 0758 b83d 14de 0dbc 7504 89bd
00000070: 3bee fa3c 3883 b63d 2008 493d dbf9 a03d
00000080: 030e 473c 7298 ba3d 5e47 6e3d 9790 0bbd
00000090: 9594 d0bc a818 7a3d 3b53 fabc 6421 9abc
000000a0: ee78 90bc e9b1 8ebc 2ee4 a8bd 1fce 74bd
000000b0: d518 993d 3d46 8abd 1338 a53d 1637 d03d
000000c0: 08b1 e03b d181 aa3d e0c4 a33c 0780 a93d
000000d0: b152 92bc 0dfa fa3c 2a33 be3d f02c a7bd
000000e0: ebb3 adbd 0e2b 2abc eeb8 383c 3b40 62bd
000000f0: 1acc 343c 9a27 a03d c37e dcbc 6a04 983d
00000100: 9c9a 44bb 157d 20bd feab aabc 148f 14bd
00000110: 8979 57bb 3594 f1bc 3f60 d73d 4616 9cbd
00000120: 2dc3 cabc 8882 f4ba 4d39 10bd 0e2f 30bd
00000130: a107 1abd 7359 c6bc b308 873c 7328 b2bc
00000140: 7084 dc3d 4682 19bd caa2 d039 d95b 263d

fc3.weight f4 [10, 84]
-0.018371077 0.057580136 0.14355823 0.061633844 0.06725564 -0.15421404 -0.02166551 -0.008298422
-0.29117143 -0.24934195 0.09018255 -0.23261043 0.06706678 -0.04736326 0.1324073 0.08975996
-0.049962956 0.20311701 0.17092548 0.34117183 -0.028669514 0.0015457792 0.047307275 -0.020900585
-0.20547564 0.030553667 0.25240833 0.07481661 0.2419087 0.020437937 -0.17721696 0.06173026
-0.1642311 -0.179381 -0.09879182 -0.011626627 -0.014751301 0.3632406 -0.008106976 -0.07059765
-0.0605851 0.122471325 -0.0071082455 0.060436532 0.16441913 0.13552931 0.024464931 0.12599938
0.012290105 0.033230178 -0.12359488 0.19786166 0.15664688 -0.10746078 0.23527093 -0.06605142
0.13962826 0.0024680167 0.04437961 -0.017029235 0.013588719 0.042746928 0.11828874 -0.012470247
-0.043549236 0.13809752 0.15573655 -0.07826799 -0.00067166996 -0.2892744 0.20048037 0.094042525
0.11489514 0.045392614 -0.14882655 0.048861887 0.1933656 -0.09196857 -0.16064698 0.26828825
0.0022232202 -0.13731658 -0.052969124 -0.017151129 0.12589131 -0.023773868 0.049898356 0.1800311
-0.04752834 0.37976858 0.017461596 0.20246692 0.05125983 0.01236349 0.10903396 0.1146927
0.0730488 -0.02609145 -0.08708807 0.34718513 0.114700265 0.16446166 -0.15876429 0.019432446
-0.09054828 0.17938252 0.13219962 0.09234599 -0.20557913 -0.13580573 -0.19414547 -0.100800976
-0.29981732 -0.2829954 0.05070205 0.09349745 -0.23811784 0.12599966 0.015980354 -0.15271401
0.14893077 0.054245178 0.008897148 -0.185222 -0.026531456 0.123919696 -0.19776314 0.049273808
-0.10778272 0.08902948 -0.058335174 -0.1980704 0.017467994 0.058333334 0.10731807 -0.11027229
-0.0846729 0.064536706 0.14149828 0.06099631 0.0125112925 0.008348379 -0.11200454 -0.0922956
0.08813895 0.041278336 -0.07139561 -0.048651025 -0.19534013 0.13374956 0.12619962 0.04070676
-0.32042703 0.10838468 -0.06264955 0.09595982 -0.103894554 -0.13550863 -0.09771112 -0.16219395
-0.037373684 -0.015188505 -0.01584537 0.12520185 -0.13844417 0.021560853 0.20269497 -0.06984126
0.1717977 0.19989061 -0.1739404 -0.013951837 0.36024082 0.036047816 -0.28204092 -0.4399252
0.06308202 0.11682782 0.06269807 0.13546783 0.117324196 -0.029960709 -0.07296204 0.12966871
0.034307692 0.094720796 0.26390836 -0.35807303 0.03919698 0.08465169 -0.015153285 -0.059991114
0.003323325 -0.15160878 0.42712155 0.030891549 -0.007939461 0.11245706 -0.15501238 0.28162837
-0.054612044 -0.07839377 0.0018167383 0.22806787 -0.108470835 0.06295147 -0.11794667 -0.24882893
0.075418025 -0.2597012 -0.10368219 -0.004852323 -0.036502454 0.12532203 -0.0988717 0.23218024
-0.38411054 -0.09494621 -0.04777383 0.11776083 -0.14360054 0.364046 0.11165186 -0.08804475
0.016427673 0.31848064 -0.022604931 -0.045210205 0.0035266923 -0.21777911 0.22964972 0.15472792
-0.045592837 0.1891259 -0.13990146 0.014759047 -0.17558953 0.2713396 0.05520117 -0.02656161
-0.08273424 0.15068924 0.0062260786 -0.1401217 -0.11116527 0.0061516003 0.04086045 -0.05365116
0.063914396 0.04736798 0.05929466 -0.07501167 0.025285477 0.17100523 -0.040471807 0.15076333
00000000: f17e 96bc 26d9 6b3d ee00 133e c573 7c3d
00000010: 53bd 893d 49ea 1dbe de7b b1bc 1bf6 07bc
00000020: 6c14 95be 7f53 7fbe a1b1 b83d 6e31 6ebe
00000030: 4f5a 893d faff 41bd c795 073e 12d4 b73d
00000040: f5a5 4cbd e8fd 4f3e 1707 2f3e 13ae ae3e
00000050: 54dc eabc be9b ca3a 46c5 413d b437 abbc
00000060: 3568 52be af4b fa3c aa3b 813e 7339 993d
00000070: eab6 773e 766d a73c 5d78 35be ded8 7c3d
00000080: 332c 28be a7af 37be 5e53 cabd 9c7d 3ebc
00000090: 71af 71bc acfa b93e 1fd3 04bc 8095 90bd
000000a0: 1528 78bd 3fd2 fa3d 49ec e8bb 4c8c 773d
000000b0: 7d5d 283e 32c8 0a3e ae6a c83c fb05 013e
000000c0: 705c 493c 5e1c 083d 501f fdbd 3f9c 4a3e
000000d0: 0a68 203e 6614 dcbd ddea 703e f845 87bd
000000e0: b6fa 0e3e 73be 213b 65c7 353d e580 8bbc
000000f0: 38a3 5e3c 6717 2f3d 5e41 f23d 0250 4cbc
00000100: af60 32bd 7069 0d3e 6779 1f3e f84a a0bd
00000110: 0213 30ba c61b 94be ba4a 4d3e 5e99 c03d
00000120: 254e eb3d 9bed 393d fd65 18be 6723 483d
00000130: a201 463e 055a bcbd a480 24be 145d 893e
00000140: 72b3 113b b89c 0cbe 27f6 58bd 8680 8cbc
00000150: a7e9 003e 6ac1 c2bc 3862 4c3d 135a 383e
00000160: 14ad 42bd 0771 c23e 9f0b 8f3c 7d53 4f3e
00000170: d4f5 513d 3c90 4a3c 324d df3d 02e4 ea3d
00000180: 9c9a 953d bdbd d5bc 3b5b b2bd 40c2 b13e
00000190: f9e7 ea3d a368 283e 1b93 22be cb30 9f3c
000001a0: 6071 b9bd 0db0 373e 565f 073e e51f bd3d
000001b0: 5683 52be a810 0bbe 12ce 46be be70 cebd
000001c0: a881 99be c6e4 90be f4ac 4f3d 977b bf3d
000001d0: 2ad5 73be 0e06 013e 3be9 823c 1061 1cbe
000001e0: 4f81 183e 3130 5e3d 58c5 113c d6aa 3dbe
000001f0: 7f58 d9bc 9cc9 fd3d 6c82 4abe 55d3 493d
00000200: 30bd dcbd 1755 b63d ddf0 6ebd f8d2 4abe
00000210: 0a19 8f3c efee 6e3d 94c9 db3d 70d6 e1bd
00000220: fc68 adbd d22b 843d ede4 103e 44d7 793d
00000230: 2afc 4c3c a4c7 083c a362 e5bd 7a05 bdbd
00000240: 3282 b43d 7913 293d dd37 92bd 4c46 47bd
00000250: 3e07 48be a5f5 083e 793a 013e 22bc 263d
00000260: 030f a4be c9f8 dd3d 684e 80bd 9586 c43d
00000270: abc6 d4bd c6c2 0abe c51c c8bd 2c16 26be
00000280: 2615 19bd 35d9 78bc 26ce 81bc ea34 003e
00000290: 4fc4 0dbe 63a0 b03c 458f 4f3e ef08 8fbd
000002a0: bceb 2f3e 20b0 4c3e 6f1d 32be 3f96 64bc
000002b0: 7c71 b83e e0a6 133d ab67 90be e03d e1be
000002c0: 2531 813d 6d43 ef3d d967 803d 14b8 0a3e
000002d0: ab47 f03d 2970 f5bc 1f6d 95bd e0c7 043e
000002e0: 3986 0c3d fafc c13d ff1e 873e 5955 b7be
000002f0: 038d 203d de5d ad3d 7c45 78bc 3eb9 75bd
00000300: 24cc 593b 553f 1bbe adaf da3e 4610 fd3c
00000310: 8314 02bc e34f e63d 91bb 1ebe 9831 903e
00000320: e1b0 5fbd ea8c a0bd 9f1f ee3a a08a 693e
00000330: f525 debd b3ec 803d 068e f1bd 03cd 7ebe
00000340: c474 9a3d 8ef7 84be 5457 d4bd 3c00 9fbb
00000350: 9983 15bd 6b54 003e 3f7d cabd a8c0 6d3e
00000360: 23aa c4be 2973 c2bd 7eae 43bd 972c f13d
00000370: 050c 13be 3d64 ba3e bba9 e43d ce50 b4bd
00000380: 5493 863c e50f a33e fa2d b9bc 562e 39bd
00000390: 1420 673b 7d01 5fbe 4c29 6b3e ff70 1e3e
000003a0: 8ebf 3abd 38aa 413e 5442 0fbe eecf 713c
000003b0: becd 33be 06ed 8a3e 9f1a 623d bc97 d9bc
000003c0: 9270 a9bd 484e 1a3e 2204 cc3b 107c 0fbe
000003d0: 9eaa e3bd 5d93 c93b 4a5d 273d 52c1 5bbd
000003e0: 8de5 823d ed04 423d f5de 723d b89f 99bd
000003f0: 7d23 cf3c ff1b 2f3e c4c5 25bd b461 1a3e

fc3.bias f4 [10]
-0.04887957 -0.13103312 0.1807573 -0.1011389 -0.1331333 0.06694411 0.10630499 -0.093366586
0.13403276 0.07944025
00000000: f235 48bd 8c2d 06be 7118 393e e921 cfbd
00000010: 1954 08be fe19 893d 6eb6 d93d fb36 bfbd
00000020: e23f 093e 92b1 a23d
